gnn_model.pth (torch, 16425 bytes, 8 tensors)

conv1.bias f4 [64]
0	0xbc46c927	-0.012132919
1	0xbce18a7c	-0.027531855
2	0x3cb25ede	0.021773752
3	0xbcb34aa1	-0.021886172
4	0xbb63717c	-0.0034705093
5	0xbc641d42	-0.013922991
6	0xbce6c3df	-0.02816957
7	0x3c3e2f1e	0.011607913
8	0xbc8ad158	-0.016945526
9	0x3aef3a60	0.001825165
10	0xbc80457b	-0.01565813
11	0xbcedf181	-0.029045822
12	0x3c756013	0.014976519
13	0xbc6c7c31	-0.014433906
14	0x00000000	0.0
15	0x3cb6c1fc	0.022309296
16	0xbc41bb3b	-0.011824424
17	0xbc01bf6f	-0.0079191765
18	0x3c9563ec	0.018236123
19	0x3c0465a2	0.008080872
20	0x00000000	0.0
21	0xbc34dc2a	-0.011038819
22	0x3bed96b5	0.0072506317
23	0xbcba39b3	-0.022732591
24	0x00000000	0.0
25	0x3c7e4f05	0.015521769
26	0xbcc0bf7e	-0.02352881
27	0x3c247f82	0.010040166
28	0x3d20bab5	0.039240558
29	0xbcb3e1f0	-0.021958321
30	0x3ba73c1f	0.0051036025
31	0x3b0776e2	0.0020670225
32	0xbd12b817	-0.035820093
33	0xbc3710ac	-0.0111734085
34	0xbcacfb9f	-0.021116076
35	0x3ce0a1d6	0.02742092
36	0xbc757eef	-0.014983877
37	0xbca79e96	-0.020461362
38	0x3ca0c29e	0.01962405
39	0x3c419382	0.011814954
40	0x00000000	0.0
41	0xbd172afa	-0.03690622
42	0x3c40d550	0.011769608
43	0x3d0eb9b9	0.034845088
44	0xbceb26e3	-0.028705066
45	0xbc01a1b5	-0.007912089
46	0xbcbd4c6d	-0.023107732
47	0xbcb979a0	-0.022641003
48	0xbb5c2052	-0.00335886
49	0xbbf94761	-0.007607386
50	0xbbc5eae5	-0.0060399645
51	0x3d36a697	0.044592466
52	0xbbf24a1e	-0.0073940894
53	0xbc29c413	-0.010361689
54	0x3cfeff90	0.031127721
55	0x3b02d9d4	0.0019966261
56	0xbc3d8de7	-0.011569477
57	0xbd09b259	-0.03361735
58	0x3d0aa173	0.033845376
59	0x3cd69ae6	0.026196908
60	0xbc2b0be9	-0.010439851
61	0xbc5c0f03	-0.013431313
62	0xbc8b7103	-0.017021662
63	0xbce2a6b3	-0.027667379

conv1.lin.weight f4 [64, 7]
0	0x3cfdb3b0	0.03096947
1	0xbcb4cf0c	-0.022071384
2	0xbe35fd1a	-0.17772332
3	0x3e8cac69	0.2747529
4	0xbd008c44	-0.031383768
5	0x3e07901f	0.13238572
6	0xbca7eb63	-0.020497983
7	0xbe790bd5	-0.2432092
8	0xbe34fbb8	-0.17674148
9	0xbe22931b	-0.15876429
10	0x3e774c93	0.24150304
11	0xbcdc275b	-0.026874235
12	0xbe4d2927	-0.2003523
13	0x3e77c9e2	0.24198106
14	0xbe671811	-0.22567774
15	0x3e6e185b	0.23251478
16	0xbbd759bc	-0.0065719765
17	0x3e3f9669	0.1870972
18	0x3d8698ba	0.06572099
19	0x3dbeaf13	0.093107365
20	0x3e55d961	0.20883705
21	0x3e142c46	0.14470014
22	0x3cdb5f0a	0.026778717
23	0xbe0a9a22	-0.1353536
24	0xbe835720	-0.2565241
25	0x3e499efe	0.19689557
26	0x3e8f9bf0	0.28048658
27	0x3e2f86c0	0.17141247
28	0x3d72ebb1	0.059306804
29	0x3cab8243	0.020936137
30	0x3e8291dc	0.25501907
31	0xbe5ebe48	-0.21752274
32	0xbd5c3062	-0.05375708
33	0x3e78e367	0.24305497
34	0x3e32e6b3	0.17470817
35	0xbc8555dd	-0.016276294
36	0x3e841209	0.2579501
37	0x3e0c1a13	0.13681822
38	0xbe09a69c	-0.13442463
39	0x3e096808	0.13418591
40	0xbdaf1e5b	-0.08550712
41	0xbda9d1ec	-0.082919925
42	0xbc9c8f5d	-0.01911133
43	0xbd0e49c3	-0.034738313
44	0x3d916cf1	0.07100857
45	0xbcd22b21	-0.025655331
46	0x3e2492c3	0.1607161
47	0xbc87a78a	-0.016559381
48	0xbe79e0b1	-0.24402119
49	0x3dcc5e24	0.099788934
50	0x3de570e1	0.112031706
51	0xbd2238f1	-0.039605085
52	0x3e0597cb	0.13046186
53	0x3de18a29	0.1101268
54	0x3d6bdf3e	0.057585947
55	0xbe791907	-0.24325953
56	0x3e8a3ce1	0.26999572
57	0xbe8f672e	-0.28008407
58	0xbb85cfc2	-0.0040836046
59	0xbd17c804	-0.037055984
60	0x3e275054	0.16339236
61	0xbe006d35	-0.12541659
62	0xbe5026fb	-0.2032737
63	0x3e862904	0.26203167
64	0xbe802181	-0.2502556
65	0x3cb403ec	0.021974526
66	0xbd2f1802	-0.042747505
67	0xbe7fa7dd	-0.24966379
68	0xbde313c1	-0.11087752
69	0xbdde8979	-0.108660646
70	0x3e23a8c6	0.1598235
71	0x3dc650fb	0.096834145
72	0xbe80b5d7	-0.25138733
73	0x3e5c6203	0.21521764
74	0xbdc67402	-0.096900955
75	0x3d38aa1b	0.0450841
76	0x3d9c67a4	0.076369554
77	0x3e20af1d	0.156918
78	0x3e62ecfc	0.22160715
79	0xbcffe945	-0.031239161
80	0x3dd97b6c	0.10619244
81	0xbe03f28a	-0.1288549
82	0xbb922cf4	-0.0044609252
83	0x3e3707a0	0.17874002
84	0x3e6f687d	0.23379703
85	0xbd8368e1	-0.064164884
86	0x3e32a929	0.17447342
87	0x3d297ce0	0.041378856
88	0x3e742ad7	0.23844467
89	0x3df4748f	0.11936294
90	0xbe499286	-0.196848
91	0xbdbebc48	-0.093132555
92	0x3e68bbf7	0.22727953
93	0xbbae0151	-0.0053102155
94	0xbda3a69a	-0.07990761
95	0xbd975710	-0.07389653
96	0x3e432790	0.1905806
97	0x3e57dfdf	0.21081494
98	0x3bf0ee9c	0.007352663
99	0xbe44030e	-0.1914179
100	0x3bf17180	0.0073682666
101	0x3c9904f3	0.018679118
102	0xbe611e13	-0.21984129
103	0xbc556123	-0.0130236475
104	0xbe75ae86	-0.23992357
105	0x3d19f165	0.037583727
106	0xbda20067	-0.07910233
107	0x3e20eeb8	0.15716064
108	0x3e741420	0.23835802
109	0x3cb82122	0.022476736
110	0x3e9a89c7	0.3018324
111	0xbe37e6e1	-0.17959167
112	0x3cf41598	0.029795453
113	0xbc811f45	-0.01576198
114	0x3c7ccf94	0.01543035
115	0x3b455179	0.0030108376
116	0xbd4237b0	-0.04741639
117	0x3d59ec66	0.053203963
118	0x3dfc54c1	0.12320853
119	0x3d9794de	0.07401441
120	0xbe5a5fbe	-0.21325585
121	0x3cd8ba3d	0.026455993
122	0x3d782575	0.060582597
123	0xbb8c8409	-0.0042882008
124	0xbe4c9c7c	-0.19981569
125	0xbde2d1cc	-0.11075172
126	0x3e728271	0.23682572
127	0xbd99b135	-0.07504503
128	0x3e656460	0.22401571
129	0x3cf5f023	0.030021733
130	0xbe8c2106	-0.27368945
131	0x3db8ebca	0.09029348
132	0xbd58edbe	-0.052961104
133	0x3e6e4cbf	0.23271464
134	0x3e7e657c	0.248434
135	0x3e02a4a6	0.12758121
136	0xbdb33a53	-0.08751359
137	0xbe44eab2	-0.19230154
138	0x3e806777	0.25078937
139	0x3e571f7d	0.21008106
140	0x3df8aa35	0.121418394
141	0xbd820e5e	-0.063503966
142	0xbe25e79f	-0.16201638
143	0xbe596ddb	-0.21233313
144	0xbbc9597e	-0.0061447015
145	0xbe4c69d6	-0.19962248
146	0xbdea8d54	-0.114527375
147	0x3d3e5a09	0.046472583
148	0xbc9451b5	-0.018105367
149	0x3e84b232	0.25917202
150	0xbde45bc4	-0.111503154
151	0x3e755199	0.23956908
152	0xbb560caa	-0.0032661357
153	0xbd020998	-0.03174743
154	0x3e352487	0.17689715
155	0xbe2604d6	-0.16212782
156	0xbe508464	-0.20363003
157	0xbe3f2bbb	-0.18669026
158	0xbd96947c	-0.0735254
159	0x3e591a2c	0.2120139
160	0xbd1d291d	-0.038369287
161	0x3615efdc	2.2342347e-06
162	0xbda2575f	-0.07926821
163	0xbd97da76	-0.07414715
164	0xbb822990	-0.00397224
165	0x3da505e0	0.08057761
166	0xbe0571d2	-0.130317
167	0xbc6ed816	-0.014577886
168	0xbd38e557	-0.04514059
169	0x3dac4a7b	0.084126435
170	0xbdec94ec	-0.11551842
171	0xbdf72836	-0.120682165
172	0xbd1c22ab	-0.038119
173	0xb82f963a	-4.186316e-05
174	0xbe39199e	-0.18076178
175	0x3d9f162e	0.07767902
176	0x3e63de53	0.22252779
177	0x3e5ae69c	0.21377033
178	0xbe1e95c5	-0.1548682
179	0xbe570860	-0.20999289
180	0xbe7bf047	-0.24603377
181	0x3ccfbb2d	0.025357807
182	0x3e95493b	0.29157433
183	0xbcc39a11	-0.023877176
184	0x3e08069d	0.13283773
185	0xbe710673	-0.23537616
186	0xbe1a7221	-0.15082599
187	0x3a0ec664	0.00054464326
188	0xbe6008aa	-0.21878305
189	0x3d842b5a	0.06453581
190	0xbd28bcba	-0.04119561
191	0xbdd79ec2	-0.105283275
192	0x3e8fbb3e	0.28072542
193	0xbc8676dd	-0.0164141
194	0x3e7305e2	0.23732713
195	0x3dcc59d6	0.09978072
196	0xbd7c0d06	-0.061535858
197	0xb85a337c	-5.20232e-05
198	0xbe335be4	-0.17515522
199	0xbc76cee9	-0.01506398
200	0xbd2d960b	-0.04237942
201	0x3888f544	6.5306696e-05
202	0x3d83550e	0.06412707
203	0x3e89f27b	0.2694281
204	0x3d801b62	0.06255223
205	0xbe4946a8	-0.1965586
206	0xbc3cef85	-0.011531715
207	0xbe82f318	-0.2557609
208	0xbc803875	-0.01565192
209	0x3c485b7f	0.012228846
210	0xbd919038	-0.07107586
211	0x3e7950cf	0.24347232
212	0xbe40e10f	-0.18835853
213	0x3d8f0139	0.06982655
214	0xbe1b610c	-0.15173739
215	0x3e151d0e	0.14561865
216	0x3dee9783	0.11649992
217	0x3c4f381d	0.012647656
218	0x3d511bfc	0.05105208
219	0xbda1d73c	-0.07902381
220	0x3e565c39	0.20933618
221	0xbe30b01c	-0.1725468
222	0xbc4676e0	-0.012113303
223	0xbe23cc76	-0.15995964
224	0xbdb7e601	-0.08979417
225	0xbdbd4bce	-0.09242974
226	0xbe177fbc	-0.1479482
227	0xbe032cc4	-0.12810045
228	0x3e359453	0.17732362
229	0x3e1748ff	0.1477394
230	0x3cd7a689	0.026324527
231	0xba947807	-0.0011327275
232	0xbe6b2b8b	-0.22965829
233	0xbe50bb19	-0.20383872
234	0xbe76070e	-0.24026129
235	0x3e3290e5	0.17438085
236	0xb772f62c	-1.448164e-05
237	0xbc09c2d8	-0.008408271
238	0x3df322e7	0.118718915
239	0x3e38f9b7	0.18064009
240	0xbd162450	-0.036655724
241	0x3e7bcf18	0.24590719
242	0x3e26be3c	0.16283506
243	0xbc79bd43	-0.015242877
244	0x3dbb7c03	0.09154513
245	0xbe1d614f	-0.15369152
246	0x3e0f272b	0.13979785
247	0xb97e6245	-0.00024259936
248	0xb8aaab91	-8.1381884e-05
249	0x3d53e1b5	0.051728923
250	0xbe76bd04	-0.24095541
251	0x3ddcb605	0.10776905
252	0xbe361571	-0.17781617
253	0x3e62a9bb	0.2213506
254	0xbbc3d160	-0.005975887
255	0x3def231b	0.11676618

conv2.bias f4 [32]
0	0xbc8133c9	-0.015771763
1	0xbaaf5852	-0.0013377762
2	0xbcd7cb24	-0.026341982
3	0x3d421848	0.047386438
4	0xbcb18d1e	-0.021673735
5	0x3c9cc368	0.019136146
6	0x3bab7f70	0.0052336976
7	0xbcc0e02d	-0.023544395
8	0xba2e0836	-0.0006638797
9	0x3d33ba70	0.043878973
10	0xbc8a2e11	-0.01686767
11	0xbc2a870c	-0.010408174
12	0x3c810a7d	0.015752072
13	0xbccc77ad	-0.02495941
14	0x3c6176c3	0.013761225
15	0xbb7f5b35	-0.0038964276
16	0x3d23f099	0.040024374
17	0xbc97bd37	-0.018522842
18	0xbb7f49fc	-0.003895401
19	0x3ccffe98	0.025389954
20	0xbc80d19c	-0.01572495
21	0xbcbb1c83	-0.022840744
22	0xbc86bd0b	-0.016447565
23	0xbcf12e0a	-0.029440898
24	0x3cdc2df0	0.026877373
25	0xbc595166	-0.013264036
26	0xbbe5b289	-0.0070098084
27	0x3c1dd6d7	0.009633741
28	0xbca0d69a	-0.01963358
29	0x3ca96481	0.020677807
30	0xbc9257a3	-0.017864054
31	0x3be29a96	0.0069154007

conv2.lin.weight f4 [32, 64]
0	0x3c804210	0.015656501
1	0xbe7969be	-0.24356744
2	0xbc9b938b	-0.018991252
3	0x3e602fbd	0.2189321
4	0x3e33cf73	0.17559604
5	0x3bee4498	0.0072713606
6	0xbe18f252	-0.14936188
7	0x3c9b316c	0.018944465
8	0xbcbf9c35	-0.023389915
9	0x3cdb8f1b	0.026801636
10	0xbe014e70	-0.12627578
11	0x3e141167	0.14459763
12	0xbe01fe9e	-0.12694785
13	0x3c4e9e17	0.012610934
14	0xbe124582	-0.14284328
15	0x3e28453f	0.16432665
16	0xbd356a9b	-0.04429112
17	0x3e1e3d4b	0.15453069
18	0x3cf17d4a	0.029478688
19	0xbd6e8175	-0.05822893
20	0x3e1b4ea8	0.15166724
21	0x3e36e8c5	0.17862232
22	0xbdb9610b	-0.090517126
23	0x3ddf2812	0.10896315
24	0xbe1a9fa3	-0.15099959
25	0xbe3c037d	-0.18360706
26	0xbc79a2d7	-0.015236578
27	0x3dcb1b9a	0.09917374
28	0xbe4046be	-0.18776986
29	0x3e70e05f	0.23523091
30	0x3ddfda9f	0.109303705
31	0xbe76ade6	-0.24089774
32	0x3c582f3a	0.013194853
33	0x3e2d5425	0.1692663
34	0xbd1d99f6	-0.038476907
35	0x3e4b9189	0.19879736
36	0x3df1e18e	0.11810599
37	0x3e370326	0.17872295
38	0xbdc8bdc6	-0.098018214
39	0xbd66d9e6	-0.056360148
40	0x3e5359f2	0.2063978
41	0x3e144d1c	0.1448254
42	0x3cd72941	0.026264789
43	0xbe850eb1	-0.2598777
44	0x3e1e45e6	0.15456352
45	0xbda2dadc	-0.079519
46	0x3e2c33e1	0.16816665
47	0xbe38df84	-0.18054014
48	0x3d49dbb3	0.049281787
49	0x3c8ccd4f	0.017187743
50	0xbdc3b039	-0.09555096
51	0xbe15994d	-0.14609261
52	0x3e366a2e	0.17813942
53	0xbe7d7d2e	-0.24754784
54	0xbe07b448	-0.13252366
55	0x3d870688	0.065930426
56	0xbd955319	-0.0729124
57	0x3e1fe6e5	0.15615423
58	0xbe3c8b43	-0.18412499
59	0xbe3a4d1d	-0.18193479
60	0xbe673484	-0.22578627
61	0x3e12e790	0.14346147
62	0xbe51c887	-0.20486651
63	0x3d02ce46	0.031935
64	0xbe3245e1	-0.17409469
65	0x3ce5fbec	0.028074227
66	0x3d5cdee5	0.053923506
67	0x3e536411	0.20643641
68	0xbe1d8743	-0.1538363
69	0xbe213529	-0.15742935
70	0x3d88f2e0	0.0668695
71	0x3e65e403	0.22450261
72	0x3e55818d	0.20850201
73	0x3d216b6f	0.039409097
74	0xbe4e966d	-0.2017457
75	0x3e5c1804	0.21493536
76	0xbd37b88c	-0.044853732
77	0x3c8c3338	0.017114267
78	0x3e32cb9c	0.17460483
79	0xbe0a8384	-0.13526732
80	0xbdd3faa6	-0.10350542
81	0xbd4e8530	-0.050419986
82	0x3e228943	0.15872674
83	0x3e38db70	0.18052459
84	0x3ca4d1c5	0.020119557
85	0xbd8f0cfa	-0.06984897
86	0xbd5e8c36	-0.054332934
87	0xbe34185a	-0.17587414
88	0xbe0b2980	-0.1359005
89	0xbe0bbf5b	-0.13647215
90	0x3dfb992b	0.12285074
91	0xbe64e1af	-0.22351716
92	0x3e2fcac2	0.1716719
93	0x3e76e345	0.24110134
94	0xbe726f9a	-0.23675385
95	0xbd3f1566	-0.046651267
96	0x3dc2083e	0.09474228
97	0x3c9c52ce	0.019082453
98	0xbd651400	-0.055927277
99	0x3e7b8d6f	0.24565671
100	0x3de3ef92	0.11129679
101	0xbd56281d	-0.05228435
102	0x3e629552	0.22127274
103	0x3e01a183	0.12659268
104	0x3dd771b5	0.10519735
105	0x3e4ebcdf	0.20189236
106	0xbd6cd3ca	-0.057819165
107	0xbe5755fb	-0.21028893
108	0x3d7f4539	0.062321875
109	0x3e280346	0.16407499
110	0x3e1bfe24	0.15233666
111	0xbda09ec2	-0.07842781
112	0x3d8794bf	0.06620168
113	0x3e1e7fe3	0.15478472
114	0xbe1271fc	-0.14301294
115	0x3c57b38e	0.013165368
116	0x3db0b31a	0.08627911
117	0xbe6fedee	-0.23430607
118	0xbddfe62a	-0.10932572
119	0x3e4a91f3	0.19782238
120	0x3e336567	0.1751915
121	0x3e20c0fc	0.15698618
122	0xbe4961e3	-0.19666247
123	0xbddf587f	-0.10905551
124	0x3e52799c	0.20554203
125	0x3e63dbd4	0.22251827
126	0xbe66f7f2	-0.22555521
127	0x3c2bad8a	0.010478387
128	0x3e48981a	0.19589272
129	0xbcfaf864	-0.03063602
130	0xbc83ce35	-0.016089538
131	0x3e489064	0.1958633
132	0x3c45dd87	0.012076742
133	0xbc7c474d	-0.015397859
134	0x3c40acda	0.011759961
135	0xbe65f66e	-0.22457287
136	0x3c1e352c	0.009656232
137	0xbe152cba	-0.14567843
138	0xbe854371	-0.26028016
139	0x3dc6d19b	0.09707948
140	0x3e4aa434	0.19789201
141	0xbd6c9065	-0.057754893
142	0xbe489b76	-0.19590554
143	0x3c040450	0.008057669
144	0x3e190c18	0.1494602
145	0x3e241a88	0.16025746
146	0xbdd1cd35	-0.10244218
147	0xbe005a85	-0.1253453
148	0x3c608aea	0.013704995
149	0xbe71b32d	-0.23603506
150	0x3dbb8d35	0.091577925
151	0x3daca2d6	0.08429496
152	0x3bdb0bfe	0.006684779
153	0x3e5b2561	0.21400978
154	0xbe197a47	-0.14988051
155	0x3e59c57f	0.21266745
156	0x3e305cd2	0.17222908
157	0x3dd02d08	0.10164839
158	0x3d14fcca	0.03637389
159	0xbe65ed77	-0.22453867
160	0xbd56300f	-0.052291926
161	0x3e5a5a3c	0.21323484
162	0x3dfcadcf	0.12337839
163	0x3e5ec5bb	0.21755116
164	0xbd9e90a9	-0.077424355
165	0xbd82348a	-0.06357677
166	0xbe36b353	-0.17841844
167	0xbe7bab98	-0.24577177
168	0xb7fcb41d	-3.0124613e-05
169	0xbdfa846f	-0.12232291
170	0xbe889597	-0.26676628
171	0xbd5c9d6a	-0.05386106
172	0x3d90bacc	0.07066879
173	0xbdb646e5	-0.08900241
174	0xbccdc421	-0.025117936
175	0x3d45aa8e	0.048258357
176	0x3e00231d	0.12513395
177	0xbe46af1f	-0.19402741
178	0x3d0a9448	0.03383282
179	0x3ab29cb6	0.0013627026
180	0xbc4f5e87	-0.012656814
181	0x3e2a32c2	0.16620925
182	0xbe0ef9be	-0.13962457
183	0x3dae49c1	0.08510161
184	0xbe76bc89	-0.24095358
185	0x3b47f1e5	0.003050917
186	0x3df41c77	0.11919492
187	0xbe56d21f	-0.20978592
188	0x3d4cdf01	0.05001736
189	0x3e5dcda5	0.21660478
190	0xbd524336	-0.05133363
191	0xbe82218b	-0.25416216
192	0x3d7216be	0.05910372
193	0xbdde04fa	-0.10840793
194	0x3dc5c631	0.09656943
195	0xbb33c9ca	-0.0027433508
196	0x3e0ea587	0.13930331
197	0x3e180c8d	0.14848538
198	0xbcb411e4	-0.021981187
199	0x3e04816f	0.1294
200	0xbe0e3bf0	-0.13890052
201	0x3e36efe1	0.17864944
202	0xbd86c8da	-0.06581278
203	0x3dc8dfb6	0.098082945
204	0x3d80d7ab	0.062911354
205	0xbcd389ad	-0.025822485
206	0x3de32320	0.11090684
207	0x3e82dd98	0.25559688
208	0xbdd44550	-0.10364783
209	0x39ddabb7	0.00042280342
210	0x3d8910c2	0.066926494
211	0xbe1d899d	-0.15384527
212	0x3e0d52e9	0.13801159
213	0x3da6a24b	0.08136424
214	0x3e3eb1dc	0.18622535
215	0xbe0e7a74	-0.139139
216	0xbcac48d5	-0.021030823
217	0xbe1da49a	-0.15394822
218	0xbdcb6f68	-0.099333584
219	0xbd125146	-0.03572204
220	0x3c91d2b5	0.017800668
221	0xbdec44b3	-0.11536541
222	0xbb2683a3	-0.0025408051
223	0x3d54b73d	0.051932562
224	0x3c930a33	0.0179492
225	0x3e93efbd	0.28893843
226	0xbe1abbd5	-0.15110715
227	0xbd22130a	-0.03956894
228	0xbdb62cf8	-0.08895296
229	0xbdb7d9bf	-0.08977079
230	0xbe37c22c	-0.17945164
231	0x3e0243f0	0.12721229
232	0x3e376e87	0.17913257
233	0xbc7ec77d	-0.015550491
234	0x3ddf3f84	0.109007865
235	0x3e331746	0.17489347
236	0xbd511be8	-0.051052004
237	0xbe0d7715	-0.13814957
238	0xbdd24781	-0.102675445
239	0xbddbdde7	-0.10735684
240	0x3e0f5a7a	0.13999358
241	0xbe000c8c	-0.12504786
242	0xbdbe1d6f	-0.09282958
243	0x3e186cdb	0.14885275
244	0xbdcd01ed	-0.10010133
245	0xbccd8c76	-0.025091391
246	0x3e8afc14	0.27145445
247	0xbe3e9c18	-0.18614233
248	0xbe1a2ddb	-0.15056555
249	0x3c083e6c	0.008315664
250	0x3dd912d1	0.10599292
251	0xbccb7611	-0.024836572
252	0x3e66d63f	0.22542666
253	0xbe11fbce	-0.14256212
254	0x3e0a47b3	0.13503914
255	0x3d8792f7	0.06619828

conv3.bias f4 [16]
0	0x3c6af77b	0.0143412305
1	0xbc9a531f	-0.018838463
2	0xbcb1e277	-0.021714432
3	0xbc8a4e6a	-0.016883094
4	0x3c6afb11	0.014342085
5	0x3d38fdaf	0.045163807
6	0xbca4f4e0	-0.020136297
7	0xbcfb3c00	-0.030668259
8	0xbc3b419d	-0.011429218
9	0x3d449d82	0.048001774
10	0x3d320b67	0.043467905
11	0xbcd1afee	-0.025596585
12	0xbcb84c0a	-0.022497196
13	0x3c754d07	0.014971978
14	0xbc2deef1	-0.01061605
15	0x3c3c3f1f	0.011489659

conv3.lin.weight f4 [16, 32]
0	0x3d765347	0.060138013
1	0xbe487928	-0.19577467
2	0x3da2e8d2	0.07954563
3	0x3c878104	0.016541012
4	0xbe513c3c	-0.20433134
5	0x3d797966	0.06090679
6	0xbd161d5f	-0.036649104
7	0xbd088700	-0.03333187
8	0xbdfe36fb	-0.124128304
9	0x3e8f8808	0.2803347
10	0x3ea863d5	0.32888666
11	0x3e11f874	0.14254934
12	0xbe9bd23a	-0.30433828
13	0xbcfbd931	-0.030743213
14	0xbc6e864e	-0.014558388
15	0xbea6c05d	-0.32568637
16	0xbc6a1710	-0.014287725
17	0x3e9db700	0.3080368
18	0xbdc98971	-0.09840668
19	0xbe9e6227	-0.3093426
20	0x3e9b1551	0.302897
21	0xbd34da97	-0.044153776
22	0x3ea20a8e	0.31648678
23	0xbd98f99c	-0.07469484
24	0x3d0109a9	0.031503353
25	0x3dfe7512	0.12424673
26	0x3d9fe98f	0.0780822
27	0x3c8a3021	0.016868653
28	0xbc38905f	-0.0112648895
29	0xbd205c1f	-0.039150354
30	0x3e9ecc15	0.31015077
31	0xbd8f70aa	-0.07003911
32	0xbe58dbcc	-0.21177596
33	0xbe82043c	-0.25393856
34	0xbe84b986	-0.25922793
35	0xbe455fc9	-0.1927482
36	0x3df5a384	0.11994079
37	0xbe134662	-0.14382318
38	0x3e8b86ef	0.27251384
39	0xbc56e2b4	-0.013115574
40	0x3e00fb31	0.12595822
41	0x3d307620	0.043081403
42	0x3ea603c5	0.3242475
43	0xbde1cfac	-0.110259384
44	0xbd03f01f	-0.03221142
45	0xbe330675	-0.17482932
46	0x3bb9d03f	0.005670577
47	0x3d203fce	0.03912335
48	0xbe8526ae	-0.26006073
49	0xbe6cb6ac	-0.23116559
50	0xbe790945	-0.24319942
51	0x3e29dde4	0.16588551
52	0xbe11006d	-0.14160319
53	0xbe9c2a47	-0.30501005
54	0x3e2cda2a	0.16880098
55	0x3c7cc7fd	0.01542854
56	0xbea78ab2	-0.32723004
57	0xbdf3a4dc	-0.11896679
58	0x3e46896d	0.19388361
59	0xbe94ad37	-0.29038402
60	0x3e4158b0	0.18881488
61	0x3e8f0503	0.2793351
62	0xbda29585	-0.07938675
63	0x3e7def91	0.24798419
64	0x3e61f6c4	0.2206679
65	0x3dbc4f75	0.09194843
66	0x3e12c2f9	0.14332189
67	0xbe99c357	-0.30031845
68	0x3e51e083	0.204958
69	0x3dcd46b7	0.100232534
70	0xbdc8f776	-0.098128244
71	0xbe1e97f3	-0.15487652
72	0xbe89325e	-0.2679624
73	0x3e8c422b	0.27394232
74	0xbe960dad	-0.2930731
75	0x3e05b622	0.1305776
76	0x3e78ba7b	0.24289887
77	0xbe203e72	-0.15648821
78	0x3ec2b30d	0.3802723
79	0x3d33ee43	0.043928396
80	0xbe69c7da	-0.22830144
81	0xbdf5ff48	-0.12011582
82	0xbc85b01e	-0.01631933
83	0x3d8008be	0.062516674
84	0x3d397f11	0.045287196
85	0x3e9b3283	0.30311975
86	0x3ead3312	0.33828026
87	0x3c2e5c47	0.010642118
88	0x3d517892	0.051140375
89	0x3df64a64	0.12025908
90	0xbe3afa40	-0.18259525
91	0x3c4b23e9	0.012398698
92	0xbd98b4f6	-0.074563906
93	0x3eb581be	0.35450548
94	0xbd11d837	-0.03560659
95	0xbeaf93d4	-0.3429247
96	0x3e2322ed	0.15931292
97	0xbde36e3b	-0.11105009
98	0xbe7cbdd1	-0.24681784
99	0x3e89017a	0.2675894
100	0xbdc5529c	-0.09634897
101	0x3e256377	0.16151224
102	0x3b2023b3	0.002443534
103	0xbe9ddfe6	-0.30834883
104	0x3d8b7dca	0.06811102
105	0x3ebd3e37	0.3696153
106	0x3ea2a5ac	0.31767023
107	0xbd372809	-0.044715915
108	0xbe42fb21	-0.1904111
109	0xbcbb725c	-0.02288168
110	0x3e6033cf	0.21894763
111	0xbe9c9870	-0.3058505
112	0x3e89caef	0.2691264
113	0xbdccd7e3	-0.100021146
114	0x3e6a36b7	0.22872435
115	0x3e8b7999	0.2724121
116	0x3d9ba538	0.07599872
117	0x3cec82d2	0.028870974
118	0x3e5a63a8	0.21327078
119	0xbe70e605	-0.23525245
120	0x3e7f92ee	0.24958393
121	0x3e754067	0.23950349
122	0x3e92c2ca	0.28664237
123	0x3df42273	0.11920633
124	0xbeae0f6c	-0.3399614
125	0x3d8114ae	0.063027725
126	0x3e60ffc2	0.21972564
127	0xbe92a526	-0.28641623
128	0xbea06612	-0.31327873
129	0xbe31cc6c	-0.17363137
130	0x3c18aa11	0.009317891
131	0x3e17dc5c	0.14830154
132	0xbbf9bc04	-0.00762129
133	0x3ea3e700	0.32012177
134	0xbe0d5ab6	-0.13804135
135	0x3e04c9cf	0.12967609
136	0xbd41e335	-0.047335822
137	0x3d95359a	0.07285614
138	0xbe873785	-0.26409546
139	0x3c9b761d	0.01897722
140	0xbe089b9e	-0.13340613
141	0x3ea42d7c	0.32065952
142	0x3eb8dd07	0.3610613
143	0xbdc09940	-0.0940423
144	0x3eb73637	0.3578355
145	0x3e020824	0.12698418
146	0x3d973a85	0.073842086
147	0xbe7cfa6d	-0.24704905
148	0xbbc4a95b	-0.006001634
149	0x3e934a72	0.28767735
150	0x3e3372f1	0.17524315
151	0xbe8efd39	-0.2792757
152	0x3eae6960	0.3406477
153	0xbe652857	-0.2237867
154	0xbe0539b6	-0.13010296
155	0xbe5261cb	-0.20545118
156	0x3d0defb1	0.034652416
157	0x3ea502f6	0.32228822
158	0xbe1cfa58	-0.15329874
159	0xbdbe49e6	-0.09291439
160	0xbe1d323f	-0.15351199
161	0xbdd4d9b6	-0.103930876
162	0xbca52c7e	-0.020162817
163	0x3e951468	0.2911713
164	0x3e906ebe	0.2820949
165	0xbe89b9ea	-0.26899654
166	0x3e2bce3b	0.1677789
167	0x3e301970	0.17197204
168	0x3eb16157	0.34644577
169	0xbe886d6d	-0.26645985
170	0xbe52b718	-0.20577657
171	0xbe79dada	-0.24399891
172	0xbe38a680	-0.18032265
173	0x3da6201a	0.08111592
174	0xbe44ac51	-0.19206358
175	0xbe73e8be	-0.23819253
176	0x3da329f5	0.07966987
177	0x3d676df1	0.056501333
178	0x3e9f3be1	0.3110037
179	0xbe9eb5f7	-0.30998203
180	0xbe4cf9a8	-0.20017111
181	0x3e621218	0.22077215
182	0x3d4e0d95	0.05030592
183	0xbe5ad745	-0.21371181
184	0x3d3589d3	0.044320893
185	0xbe99c974	-0.3003651
186	0xbe88b7e5	-0.267028
187	0x3bc79aae	0.0060914373
188	0x3d215da9	0.039395962
189	0x3e5cde8f	0.21569274
190	0xbd8a3eab	-0.06750234
191	0xbd0825ad	-0.033239055
192	0xbe914f37	-0.2838075
193	0xbe49c7fb	-0.19705193
194	0x3e75bf94	0.23998863
195	0x3de28d76	0.11062138
196	0xbe6f8414	-0.23390228
197	0xbe67abc2	-0.22624114
198	0x3e104ff7	0.14093004
199	0xbdb80f15	-0.08987252
200	0x3e513a59	0.20432414
201	0x3d1489d4	0.036264256
202	0x3d1ec6c5	0.03876378
203	0x3c029fb3	0.007972646
204	0x3db1632e	0.08661495
205	0x3c762725	0.015023981
206	0xbde1a531	-0.11017836
207	0xbcfcf407	-0.03087808
208	0x3e8aaed8	0.2708652
209	0x3ea148ac	0.31500757
210	0xbe6f6013	-0.23376493
211	0x3e9f9224	0.31166184
212	0x3da78a21	0.08180643
213	0x3e393329	0.18085922
214	0xbeb0076e	-0.34380668
215	0x3d85218b	0.065005384
216	0x3d840be3	0.0644758
217	0xbe73a361	-0.23792793
218	0xbe583b74	-0.2111643
219	0x3dc06662	0.09394528
220	0xbe82988c	-0.2550701
221	0xbd8e0313	-0.0693418
222	0xbd024962	-0.031808265
223	0x3e99c6ed	0.3003458
224	0xbe91d9f3	-0.28486595
225	0xbbfb35d9	-0.0076663313
226	0x3e73b83a	0.23800746
227	0x3e2b4d3d	0.16728683
228	0x3e50e467	0.20399629
229	0xbe7172b9	-0.2357892
230	0x3c99d4ed	0.018778289
231	0xbd996b98	-0.07491225
232	0x3e110f12	0.14165905
233	0x3cd30246	0.02575792
234	0xbe88b1ef	-0.26698253
235	0xbe2e6a47	-0.17032729
236	0x3ea44182	0.32081228
237	0x3e3d28e4	0.1847263
238	0x3e443829	0.19162048
239	0x3e215ff7	0.15759264
240	0xbe20e9f1	-0.15714242
241	0x3db2f785	0.08738617
242	0xbcea8ec5	-0.028632531
243	0x3e2680e0	0.162601
244	0x3e3caf45	0.18426235
245	0x3e929b6f	0.2863421
246	0x3dd07a4e	0.10179578
247	0xbebeff56	-0.3730418
248	0xbe02a66c	-0.12758797
249	0xbeb7acc1	-0.35873988
250	0x3e0dd072	0.13849047
251	0x3e0ff9f6	0.14060196
252	0xbe6e9e31	-0.23302533
253	0xbeb9db6f	-0.36300227
254	0xbe4b53df	-0.19856213
255	0x3db4253f	0.08796167

classifier.weight f4 [2, 16]
0	0xbe1bf042	-0.1522837
1	0x3c80fd17	0.015745683
2	0x3e606f41	0.2191744
3	0x3db93b3b	0.090445004
4	0xbda58b5a	-0.0808322
5	0x3deb3f01	0.114866264
6	0x3e2daad6	0.169597
7	0x3b505e2a	0.0031794407
8	0xbe276d27	-0.16350232
9	0x3d89541e	0.06705497
10	0x3da468a7	0.08027773
11	0xbd8a5786	-0.06754975
12	0x3e121938	0.14267433
13	0xbdc93584	-0.098246604
14	0xbe336373	-0.17518406
15	0xbe217a06	-0.15769204
16	0x3e73308e	0.23748991
17	0xbd9dbef5	-0.07702438
18	0x3e47090e	0.19437048
19	0xbe433db6	-0.1906651
20	0xbe1929ee	-0.14957401
21	0x3d258507	0.040410068
22	0x3e20cf55	0.15704091
23	0x3e4ed4ce	0.20198366
24	0xbc623ce3	-0.013808462
25	0xbe3bff29	-0.18359055
26	0xbd906d6c	-0.070521206
27	0x3daebd53	0.085322045
28	0x3dfa98c4	0.12236169
29	0xbd6fde11	-0.05856139
30	0x3dff72cf	0.1247307
31	0xbda643a0	-0.08118367

classifier.bias f4 [2]
0	0xba4ff0e7	-0.00079323206
1	0x3c6c1e76	0.014411559
