backend/gnn_model.pth (torch, 184886 bytes, 36 tensors)

node_encoder.0.weight f4 [32, 7]
000000 74 62 6e be 7e 47 ed 3d ea e5 88 3e c4 4c 9f b9
       -0.23279744 0.11585902 0.2673791 -0.00030384038
000010 70 06 0a bb e0 2d c0 3e c1 7c 2e bd 69 8f 25 be
       -0.0021060966 0.37535 -0.042599443 -0.16167988
000020 d8 4d 14 3b e8 53 86 be 63 23 8d 3a 14 d9 da 38
       0.0022629406 -0.2623589 0.0010767992 0.00010435484
000030 9b b8 80 3e 56 b2 a5 ba a5 84 a6 3e 53 f6 9e 3d
       0.25140843 -0.0012641649 0.32523075 0.07761826
000040 7d 72 a7 bd 7f 7b 02 bb 9c 02 80 bc 54 f6 92 3e
       -0.08176134 -0.0019910035 -0.015626244 0.28703558
000050 43 af 73 be c0 1c d2 bd 8c d1 68 3a 4a 21 93 be
       -0.23797326 -0.1025939 0.00088813226 -0.28736335
000060 34 ef a9 b9 ef 47 4a 39 3d ab 8f be 69 90 88 bb
       -0.00032412412 0.00019291019 -0.28060332 -0.0041676057
000070 14 fe 88 be 8d 41 23 3a 63 7f 81 3e b7 b1 7e 39
       -0.26756346 0.00062277244 0.252925 0.00024289532
000080 79 f6 81 bc e4 d5 c0 3e 29 5d 36 be 4e 82 9d 3e
       -0.015864598 0.37663186 -0.17808975 0.30763477
000090 ff 33 8b 3d 42 b4 86 be df 67 01 3c 8d a6 ed bb
       0.06797027 -0.263094 0.0078983 -0.0072525204
0000a0 0a e9 c9 3d 29 de 5e 3e a0 e1 87 3e 70 20 39 bd
       0.09858902 0.21764435 0.26539326 -0.04519695
0000b0 63 b4 82 3e c8 d3 2b bb 99 d1 90 ba d4 24 8e 3e
       0.2552825 -0.002621876 -0.0011048793 0.27762473
0000c0 94 70 e0 bd fc e9 b8 3e 75 9e e8 35 6f c2 7e 3d
       -0.109589726 0.36116016 1.7331464e-06 0.062197145
0000d0 3c 76 9b 3b 47 aa 5e 39 01 d5 97 be 55 ea 79 3d
       0.0047443192 0.00021235003 -0.29654697 0.061014492
0000e0 f3 13 a6 3c f7 85 0d bd 00 2a 89 3e dd 66 73 bc
       0.020273184 -0.034551587 0.26789856 -0.0148560675
0000f0 d5 64 27 3c 10 26 33 3e 90 09 3d be b8 7d 8d bd
       0.010216911 0.17494988 -0.18460679 -0.069087446
000100 5a ba d1 3a 00 81 0f 3d 51 36 8d 3a ad b9 d5 38
       0.0016000972 0.035035133 0.0010773634 0.00010191216
000110 f6 a2 06 be ee b7 6e 3d 32 4e a0 be 03 bc 0f 3b
       -0.13148102 0.058280878 -0.31309658 0.0021932132
000120 2b 94 eb bd 11 49 47 3a aa c3 16 39 7e 0d 1e 3e
       -0.1150287 0.00076021353 0.00014378005 0.15434834
000130 c3 38 15 3d 66 0c 5d bd 77 8f a7 3a b6 ec 7c be
       0.036431085 -0.053966902 0.0012783845 -0.24699673
000140 a9 50 4b 39 a8 0f 7f 39 92 36 78 be 24 04 7f 3b
       0.00019389637 0.00024324527 -0.24239567 0.003891238
000150 dc d3 da 3d 24 f0 08 3b 7c 37 7d be f7 ef d5 39
       0.1068494 0.0020895088 -0.24728197 0.00040805314
000160 0d 71 f0 3a 7c 97 2b be d1 cf 88 3b bc 83 8a 3e
       0.0018344239 -0.16757005 0.0041751643 0.2705363
000170 6a 0c 8e bd 8d 21 d5 3d b1 ce 7f 3b e9 54 a8 3b
       -0.069359615 0.1040679 0.003903311 0.005137075
000180 ff e5 11 be fc 45 ac 3e 2f 8a 98 3e 1c da fa 3c
       -0.14247893 0.33647144 0.29792926 0.03062158
000190 95 48 38 be 29 c7 bd bb 16 34 8c bc 3a bb b9 3e
       -0.17996438 -0.005791564 -0.01711468 0.36275655
0001a0 ef 05 38 3e 70 c4 11 be 6b 15 dd 3a 13 54 83 be
       0.17971013 -0.14235091 0.0016867345 -0.2565008
0001b0 88 2b 4c 38 cc 54 a0 39 36 9f 11 be 3f 42 be 39
       4.867793e-05 0.00030580757 -0.1422089 0.0003628898
0001c0 d6 bf 48 bd 9f 02 0d 3b d2 fc 0b 3e bb 8f 2d 3a
       -0.049011074 0.0021516455 0.13670662 0.0006620844
0001d0 48 78 5f 39 40 dc b6 be 5a 27 3e 3d ae 1b a0 be
       0.00021311746 -0.35714912 0.046424247 -0.31271118
0001e0 90 8f bf 3a fa 55 91 be d9 6a b1 36 a3 16 7d 38
       0.0014614929 -0.28385907 5.2874498e-06 6.0340983e-05
0001f0 9c 18 f1 3b 1a 2c 84 3b 69 a0 0b 3e d6 18 bc 3a
       0.00735767 0.0040335776 0.1363541 0.0014350663
000200 78 88 48 be ad 20 8b b9 4f 67 2c 39 89 1c 67 be
       -0.19583309 -0.0002653649 0.00016441684 -0.22569479
000210 22 7d c1 3b cf 0f 7f 3e ed f0 6f 3b 13 95 84 3e
       0.0059048096 0.24908374 0.0036612109 0.25894985
000220 85 94 86 3b 39 95 44 bc 40 f6 de 3b 16 a7 b9 bd
       0.0041070604 -0.011998468 0.0068042576 -0.09065072
000230 5c f9 5d be 6d 38 b0 bc 3f 08 c1 3e bf cd 22 bb
       -0.21677154 -0.02151128 0.37701604 -0.0024841873
000240 23 e6 47 3c 3a c5 93 3e 06 e9 11 be c6 b5 be 3e
       0.012200865 0.2886141 -0.14249048 0.37248057
000250 a0 63 bf bd 7a f9 5f 3e c2 c6 01 3c 9e 06 74 bd
       -0.09345174 0.21872512 0.007920923 -0.059576623
000260 d3 57 99 be c6 46 85 3e 27 77 16 3e 84 15 75 3b
       -0.29949817 0.26030558 0.1469389 0.0037396858
000270 fd 83 54 3e b0 82 ec 3b c2 bf ed b9 31 00 a5 be
       0.20753475 0.0072177276 -0.00045347033 -0.3222671
000280 ef dd 85 3e 2a 84 ee bd 48 43 0a 3b a6 ae ac 3d
       0.26145884 -0.11646302 0.0021097232 0.08431749
000290 70 ab 24 3a 2d a8 2a 39 a3 e9 98 be 00 be 6f 3b
       0.00062816497 0.00016275114 -0.2986575 0.0036581755
0002a0 7c 18 82 bd 91 36 04 3b 53 ff b5 be bf 2a 92 b9
       -0.06352326 0.0020174126 -0.3554636 -0.00027879138
0002b0 b8 15 87 39 a9 c9 6d be d7 3a 0a 3b 6f de 8a be
       0.00025765388 -0.23221458 0.00210922 -0.27122828
0002c0 bb b0 c1 3a 45 0f 1f 3d af aa f0 b8 da 6a e6 38
       0.0014777401 0.03883292 -0.00011475884 0.00010987157
0002d0 ce 1a 92 bd 9b d6 69 3b 9b f7 8d be 0d cb bc 3a
       -0.07134019 0.0035680893 -0.2772797 0.0014403776
0002e0 e0 d4 90 be f7 9d 2b 3a c6 cf 88 38 0d 7f d4 3d
       -0.2828741 0.0006546671 6.523686e-05 0.103757955
0002f0 24 c8 0e 3b bc a3 18 be ee 02 9a 3d c4 99 81 3e
       0.0021786774 -0.1490621 0.0752009 0.25312626
000300 a8 f1 74 ba c8 a2 b7 b8 db 0e 15 be ff 1b 8f 3e
       -0.0009343871 -8.7564404e-05 -0.14556448 0.27951047
000310 54 01 ae be 67 a0 09 3b f4 06 2a 3c 7a db dd 39
       -0.33985388 0.0021000148 0.010377634 0.00042315928
000320 40 81 a1 38 94 60 44 3e 1a 68 a0 3a d3 32 87 3e
       7.701153e-05 0.19177467 0.0012238056 0.26405963
000330 10 4f d8 3d f2 63 aa 3d 64 7f 14 bb c5 ed cf bc
       0.10561955 0.08319844 -0.0022658939 -0.025381932
000340 c0 6f f9 3d 1d 6b 53 be 9e e1 0b 3e cc 2b 4b 3d
       0.12179518 -0.20646329 0.13660285 0.049602315
000350 98 2a a6 3e 04 f2 73 bb 6a 73 bf bd c9 b4 44 3e
       0.3245437 -0.003722311 -0.09348185 0.19209589
000360 c0 1b b2 bd 28 bd 8e 3c 22 f4 f1 3a 0d b4 ad be
       -0.08696699 0.017424181 0.0018459598 -0.3392643
000370 46 47 76 3a 06 d2 11 36 54 b1 30 3e f3 0c 57 3b
       0.0009394776 2.1728933e-06 0.17255145 0.0032814115

node_encoder.0.bias f4 [32]
000000 3b 0f 2e bd 30 af 38 3a ff 69 8a be f8 f2 ee bc
       -0.042494994 0.0007045148 -0.27033994 -0.02916859
000010 1e 6f 94 3e c2 9e 9e bd 21 09 bd bc 5f fa 15 bd
       0.28991026 -0.077451244 -0.023075642 -0.036615726
000020 38 05 81 bd 0d 36 8c bc 0f e4 32 3c 4a 0b d3 bc
       -0.062998235 -0.017115617 0.010918631 -0.025762219
000030 49 ee c4 bc 1d 2c 12 3d 11 8a c4 bd 6d f1 bb bc
       -0.024039404 0.0356866 -0.095966466 -0.02294227
000040 58 20 0b 3d 00 34 59 3c a7 69 dc bb c2 b2 45 bc
       0.033966392 0.013257027 -0.006726462 -0.012066545
000050 bc 93 7b 3c 18 0b 34 3e 38 e4 4c bd d2 54 60 3d
       0.015355047 0.17582357 -0.050022334 0.05476839
000060 3f 67 26 bc 6f 2f 4c bc e6 e1 d6 bc fa a8 9d bc
       -0.010156452 -0.012462481 -0.026230764 -0.019245613
000070 75 53 0e 3d 75 93 10 3e 02 6d ab bc 9f ab 5c 39
       0.03474756 0.1411875 -0.020926002 0.00021044769

node_encoder.1.weight f4 [32]
000000 ee 44 76 3f f8 17 5e 3e 54 a2 77 3f 9a 08 60 3e
       0.9619893 0.21688831 0.9673207 0.21878281
000010 e9 d4 7d 3f 57 cc 61 3f 78 1c 75 3f 7b c0 57 3f
       0.99153 0.8820242 0.95746565 0.84278077
000020 49 0a 7a 3f 68 b4 62 3e d3 a5 65 3e 9a 08 60 3e
       0.97671944 0.22139132 0.22426538 0.21878281
000030 9a 08 60 3e c1 2c 7f 3f 39 12 7d 3f 9a 08 60 3e
       0.21878281 0.99677664 0.9885593 0.21878281
000040 09 0b 67 3e ec b1 67 3e e3 05 60 3e 51 95 75 3f
       0.22562803 0.22626466 0.21877246 0.95930964
000050 51 e2 77 3f b3 27 7f 3f 61 dc 1a 3f 77 f2 78 3e
       0.96829706 0.9966995 0.6049252 0.24311243
000060 9a 08 60 3e 9a 08 60 3e a2 08 60 3e cc 54 1d 3f
       0.21878281 0.21878281 0.21878293 0.61457515
000070 63 12 5a 3e 37 b6 78 3f 9d 3f 7b 3f 5a a0 5a 3e
       0.21296076 0.9715304 0.9814394 0.21350232

node_encoder.1.bias f4 [32]
000000 1a 39 c4 3b 4a 7b 88 ba 10 9e 81 bc 00 00 00 00
       0.0059882523 -0.001041272 -0.01582244 0.0
000010 06 90 a7 3d d6 43 05 3d 8c 55 a1 bc 35 50 dc 39
       0.08181767 0.032535397 -0.019694112 0.0004202143
000020 48 b4 b5 3d 6c 5c eb b7 5e 6d 36 ba 00 00 00 00
       0.088722765 -2.805722e-05 -0.0006959046 0.0
000030 00 00 00 00 aa 71 1b 3d cb 2c a2 3c 00 00 00 00
       0.0 0.037950195 0.01979675 0.0
000040 e0 63 35 ba 7b d4 44 ba ac 56 9f 8d 27 cc 9a bc
       -0.00069194846 -0.00075084687 -9.819997e-31 -0.018896176
000050 a4 36 55 3c fb c1 47 3c f9 ea 89 3b f5 57 2c ba
       0.013013516 0.012192245 0.004208919 -0.0006574386
000060 00 00 00 00 00 00 00 00 53 a9 7f 0a 9e b9 1c 3c
       0.0 0.0 1.230965e-32 0.009565739
000070 c8 f8 3c ba e2 94 42 bc 10 b2 25 bc c9 24 8a ba
       -0.0007208702 -0.011876317 -0.010113254 -0.0010539527

conv1.edge_encoder.weight f4 [32, 3]
000000 48 19 13 3c 0f 8a 37 37 f3 90 29 3c 03 49 05 3d
       0.0089781955 1.0939794e-05 0.0103495 0.032540333
000010 05 ce 61 37 fa 4c 28 b7 ef c9 68 bc a3 cd c1 b7
       1.3459013e-05 -1.0031503e-05 -0.014208301 -2.310315e-05
000020 97 8b 5c b4 f5 ab fc bc be 44 61 b8 1a ce ba b7
       -2.0539879e-07 -0.030843714 -5.37082e-05 -2.2268901e-05
000030 0c 62 80 b9 6d 26 09 b5 3e 5d 34 33 ba 79 f2 3b
       -0.00024487113 -5.1092394e-07 4.199432e-08 0.007399765
000040 71 64 97 36 e6 16 a4 36 7c 66 aa ba dd 33 ec 3b
       4.5118436e-06 4.8902466e-06 -0.0013000513 0.007208331
000050 aa 2f 7f ba d7 53 1d 3d 47 9e 61 38 08 67 63 3b
       -0.00097345805 0.038410034 5.3791588e-05 0.0034698863
000060 ca 97 9c bd 97 c1 ab 36 e3 6d 1d 39 f5 79 9e 3b
       -0.07646139 5.118734e-06 0.00015013623 0.0048363158
000070 0a 45 26 37 c2 fd a4 34 ff 0f 6e b9 f2 19 a2 b4
       9.910445e-06 3.0732014e-07 -0.00022703408 -3.019373e-07
000080 15 e4 99 3b 6f 37 42 b8 51 69 e6 36 a4 37 8a b6
       0.004696379 -4.630483e-05 6.8667946e-06 -4.119198e-06
000090 7d c3 bf 3a d4 3b 60 36 8c 23 74 3a 8e d0 1d b9
       0.0014630404 3.3413426e-06 0.0009313158 -0.0001505038
0000a0 b2 5e c8 b4 d3 f1 2c bc 1c 85 d3 bc c9 4a 1f b8
       -3.7321803e-07 -0.010555702 -0.025820307 -3.7978203e-05
0000b0 91 73 4d 3a e5 d1 c8 3c 8e 80 bc bb c3 51 e0 37
       0.000783735 0.024514148 -0.0057526296 2.6740954e-05
0000c0 b8 37 bf 3a 8f 44 b5 b9 7c 0b 26 bc 2f 74 98 3d
       0.0014588749 -0.0003457409 -0.010134574 0.07444035
0000d0 44 3e e4 38 a8 6e e9 37 5e fa 89 b8 e1 22 8a b4
       0.00010883485 2.7827293e-05 -6.5793036e-05 -2.572988e-07
0000e0 b8 90 a0 bc 76 d6 41 3a a9 0f 66 36 ac 91 92 35
       -0.019600257 0.0007394323 3.4281786e-06 1.0920244e-06
0000f0 70 ae 6b bc c0 7e 79 b7 b9 51 49 ba 68 1f 8c b8
       -0.014384851 -1.4871068e-05 -0.0007679719 -6.68157e-05
000100 31 ff 9c 32 34 3f 94 b3 8e 13 13 38 2f 9c b7 3b
       1.8276838e-08 -6.9032836e-08 3.5065743e-05 0.0056033353
000110 46 60 63 3b ca 2d 17 3d 33 f5 a5 bc 6b c3 2b 36
       0.0034694835 0.036908902 -0.020258522 2.5594734e-06
000120 f5 71 14 3c 5c 73 a8 3b 0f 91 52 39 66 94 bf b9
       0.009060373 0.005140705 0.00020081199 -0.00036540924
000130 2a ba 31 b5 9b 2e 05 3a e5 48 69 bc dd 6a 45 39
       -6.620854e-07 0.0005080492 -0.014238571 0.00018827194
000140 49 7a 4a b7 0d 05 85 36 ab cb 40 33 d8 c6 df 33
       -1.206861e-05 3.964297e-06 4.488872e-08 1.0420416e-07
000150 2f 7d eb bb 9d 47 f8 b9 44 23 28 b9 9c 4a 3c 3d
       -0.007186554 -0.00047355602 -0.00016034866 0.04596959
000160 6e 3a c8 3a 34 72 21 3a 00 e5 87 ba 57 c1 0e b5
       0.0015276202 0.000615868 -0.001036793 -5.318047e-07
000170 de 4b f7 3b ec 90 9c bc f5 25 26 ba f6 98 31 b5
       0.007546886 -0.019112073 -0.00063380535 -6.6160226e-07

conv1.edge_encoder.bias f4 [32]
000000 25 b1 06 39 89 f5 8d ba a6 3f c8 bb 43 34 90 3a
       0.00012845227 -0.0010830621 -0.006111103 0.0011001903
000010 46 97 dc b9 fb e6 8a bb 09 48 dd b7 0d 98 8c 38
       -0.00042074377 -0.004238961 -2.6378797e-05 6.704042e-05
000020 e1 67 65 ba de e5 33 39 e4 3a bd bb a2 33 7d ba
       -0.0008751136 0.00017156402 -0.0057748426 -0.0009658878
000030 e4 4b 6a b6 7e 74 13 3a 94 cb b2 bb 76 06 99 b7
       -3.4912891e-06 0.00056249637 -0.0054563973 -1.824203e-05
000040 c5 1b 65 38 74 dc 4b 3a 91 5e 19 ba 1f 9c 94 3c
       5.4623717e-05 0.00077766855 -0.00058505783 0.01814085
000050 d6 66 85 ba 23 32 49 b7 6b 81 4d 36 99 70 c2 39
       -0.0010177742 -1.1992207e-05 3.0622712e-06 0.00037086455
000060 21 6c 45 39 8a ea 32 36 fb 0d 23 37 26 a7 65 3b
       0.00018827665 2.6660587e-06 9.718812e-06 0.0035042255
000070 e6 78 20 b9 ed da 01 bc 65 25 da 3b 53 69 99 b9
       -0.00015303827 -0.007925731 0.00665729 -0.00029260907

conv1.pre_nns.0.0.weight f4 [32, 96]
000000 87 8e 15 bb 3b db 46 91 4c db 48 bb de 50 a8 12
       -0.0022820549 -1.5687002e-28 -0.003064829 1.0622226e-27
000010 f2 03 2a bb ec e0 1c bb 2a ad f7 ba b2 b1 8b 39
       -0.0025942293 -0.0023937775 -0.0018896211 0.0002664454
000020 1a 76 3d bb 4d 66 35 21 67 8c 67 1c 97 52 e5 11
       -0.0028909505 6.146058e-19 7.6612954e-22 3.618073e-28
000030 7f ab c6 12 84 b0 33 bb 7a 38 0f bb b7 46 cc 13
       1.2537834e-27 -0.0027418444 -0.002185373 5.156657e-27
000040 39 ec c9 9a f3 4d 11 14 57 62 17 14 e2 6a 26 bb
       -8.351329e-23 7.336002e-27 7.642946e-27 -0.0025393297
000050 58 b1 40 bb 1a 28 27 bb 2f 74 3b 3a 0c 0f 39 96
       -0.002940258 -0.002550608 0.00071507966 -1.4948929e-25
000060 25 d4 85 94 27 ee 41 1a d4 5a 53 94 48 d8 b0 3a
       -1.3513244e-26 4.0103842e-23 -1.067069e-26 0.0013492191
000070 59 93 80 8f 90 15 45 bb 71 b9 fd ba ba 54 45 0c
       -1.267853e-29 -0.0030072667 -0.0019357634 1.5201824e-31
000080 a3 b2 2e bb ce cd 3e 96 f1 ab 74 bb 60 1b c7 91
       -0.0026656769 -1.5413018e-25 -0.003733393 -3.1413535e-28
000090 62 c3 63 bb 03 f3 bd ba 3d 54 d3 ba 22 db 44 b9
       -0.0034753908 -0.0014491979 -0.0016123127 -0.0001877365
0000a0 a3 78 7e bb be ad b0 1f 69 05 bb 15 40 b0 5c 95
       -0.003882923 7.482633e-20 7.5537234e-26 -4.4567683e-26
0000b0 1f 8d ea 08 e9 fd b3 ba c5 64 ed ba 31 eb 34 0f
       1.411654e-33 -0.0013732287 -0.0018111697 8.9199814e-30
0000c0 57 0a c4 92 b8 26 d7 0a 94 27 db 08 74 72 58 bb
       -1.2371888e-27 2.0718311e-32 1.3189888e-33 -0.0033027204
0000d0 c1 b9 5c bb 47 07 da ba e7 b4 8c 3a b1 62 c3 0d
       -0.0033680054 -0.0016634249 0.0010735065 1.2041562e-30
0000e0 06 82 25 99 98 b5 81 93 45 bf d6 13 46 bd cf 3a
       -8.556558e-24 -3.2743243e-27 5.42098e-27 0.0015849255
0000f0 8e a1 69 9a d2 86 48 bb 70 9e 23 bb 2b 4f 6c b5
       -4.8313774e-23 -0.0030597937 -0.0024966262 -8.8032056e-07
000100 b3 01 ac 39 bc 6a 2b 3b d4 24 7b ba 8b 8b 2a bb
       0.00032807663 0.0026156148 -0.0009580378 -0.0026023115
000110 4a e5 7e 37 7d c3 47 b9 65 d2 9d 38 59 aa 66 3b
       1.5192965e-05 -0.00019050944 7.5255324e-05 0.003519675
000120 d5 f4 e5 bb 02 61 dc b8 29 51 ae 37 c6 11 f7 35
       -0.0070177116 -0.000105084866 2.078021e-05 1.8408107e-06
000130 3f d2 4d 39 aa 29 74 b7 c7 dc 0b bb f8 03 fb 3a
       0.00019628646 -1.4553234e-05 -0.002134131 0.0019150963
000140 d5 a8 09 b8 13 eb e0 3b 2b 98 fd b7 88 4f 32 b8
       -3.2820582e-05 0.0068639605 -3.0230809e-05 -4.2512576e-05
000150 a7 5f 8c ba 21 25 32 36 a4 38 e8 36 1a 69 35 3b
       -0.0010709659 2.6545679e-06 6.9207326e-06 0.0027681054
000160 56 7a a1 39 f2 cd af 37 78 ac 67 ba 2c c0 f1 b6
       0.0003079946 2.0957526e-05 -0.00088376505 -7.2047314e-06
000170 ee 3e 86 38 dd dd 70 3b eb 99 93 36 1b 6a 2f ba
       6.4013395e-05 0.0036753335 4.39886e-06 -0.0006691531
000180 50 49 a6 bc ea 0c e1 10 fc fa 95 bc 9c be 38 13
       -0.02029863 8.876675e-29 -0.018308155 2.3318043e-27
000190 65 47 66 bc a0 2b a9 bc 23 9c e8 bc 2d ce ae bb
       -0.014055108 -0.020650685 -0.028394764 -0.0053346367
0001a0 f3 c8 7b bc 4d 88 0b 9f f8 61 12 96 49 d0 9d 93
       -0.015367734 -2.954714e-20 -1.18247e-25 -3.9837757e-27
0001b0 88 18 3d 09 97 4a f1 bc 06 56 fe bc 5d 9a 49 8d
       2.2761582e-33 -0.029454513 -0.031046879 -6.2123715e-31
0001c0 93 1d 1f 9b f4 4f cd 08 7a ab a7 0f 8c 06 bd bc
       -1.3161728e-22 1.2356786e-33 1.6533522e-29 -0.02307441
0001d0 35 cb 91 bc 55 ac f0 bc 0c b0 61 bb 96 12 57 94
       -0.017797092 -0.02937905 -0.0034437208 -1.08583915e-26
0001e0 aa 3c cf 1c 7f 7b 96 90 f0 a8 3b 8a 42 08 15 3b
       1.3713792e-21 -5.9354844e-29 -9.035496e-33 0.0022740518
0001f0 e9 35 34 0d 5d 8c 8d bc c9 bc d7 bc 1a cc b6 10
       5.5531674e-31 -0.017278844 -0.026335137 7.210081e-29
000200 76 4b b3 bc 05 60 d4 13 33 d3 ea bc ed 29 01 91
       -0.021886569 5.3611006e-27 -0.02866516 -1.0189225e-28
000210 5f 23 bb bc 69 da 50 bc 2e dd 01 bd 22 51 cc bb
       -0.022844015 -0.012747386 -0.031705074 -0.0062352577
000220 f0 26 ce bc 4e 9a 9c 1d 4d 36 9e 14 a9 eb 8f 8a
       -0.025165051 4.1452403e-21 1.5975341e-26 -1.3859045e-32
000230 32 f0 af 13 bb 34 96 bc 12 ae e7 bc 2c 44 51 92
       4.441306e-27 -0.01833569 -0.028281245 -6.60328e-28
000240 38 f9 3f 0e 0e 6e 3c 8e 94 d5 5e 98 4d 4a d4 bc
       2.3662562e-30 -2.3225778e-30 -2.8800657e-24 -0.025914336
000250 b3 3a bd bc 01 68 ad bc 5f b0 bf b9 75 d7 ad 12
       -0.023099279 -0.021167757 -0.00036561766 1.0970949e-27
000260 dc 35 40 90 54 85 9f 12 b0 98 13 91 bb 7d 2c 3a
       -3.7906815e-29 1.0067179e-27 -1.1643306e-28 0.00065800146
000270 df 1a 10 14 bc 9b ce bc 33 2f f0 bc b0 c1 fb 34
       7.2754415e-27 -0.025220744 -0.029319381 4.689332e-07
000280 8a 1d 60 bb c3 e0 1f bc 2a f1 9f 3b 69 00 0c 3c
       -0.0034197294 -0.009758177 0.004881044 0.00854502
000290 ce 6e f7 38 c1 bd 37 bb c8 87 f1 39 38 01 2e bc
       0.00011798517 -0.0028036686 0.00046068267 -0.010620408
0002a0 9b db 93 3c dc 65 c8 3a a5 ac ad b9 95 8e 8e b6
       0.018049052 0.0015289146 -0.00033125762 -4.2485285e-06
0002b0 b5 c3 0f 3a aa 4c 6e 37 2c 05 fa 3b 07 4e ef bb
       0.000548418 1.4203755e-05 0.007630011 -0.0073030028
0002c0 0c f4 20 ba 20 1b 95 bc 98 ee 2a b8 29 de 38 3a
       -0.00061398814 -0.01820141 -4.0753366e-05 0.00070521474
0002d0 c9 52 98 3b 5f 5c af 36 3a ed 11 b7 02 69 38 bc
       0.0046485406 5.22616e-06 -8.697907e-06 -0.011255505
0002e0 13 3b 55 bb d6 f9 17 39 7f ca 95 3b 98 6c 74 b8
       -0.0032536432 0.00014493553 0.0045712586 -5.827527e-05
0002f0 6f 40 3d 3b af ab 59 bc a4 07 9f 39 6d 48 de 3b
       0.0028877517 -0.013285561 0.00030332536 0.006783536
000300 7f 38 37 39 60 ae 43 1c ae 70 c4 39 24 df 0e 12
       0.00017473286 6.474546e-22 0.00037467986 4.508234e-28
000310 ea 47 89 39 d4 29 c0 39 98 59 e9 39 f5 47 76 38
       0.00026184256 0.00036652258 0.00044507976 5.8717986e-05
000320 44 32 ad 39 32 83 81 21 3f 7c 6d 1b 45 a0 21 98
       0.00033034582 8.776107e-19 1.9644327e-22 -2.0889678e-24
000330 49 8f e4 96 08 b3 01 3a f5 95 31 3a 4d 9b 3d 9c
       -3.6925812e-25 0.0004947637 0.00067743595 -6.2735576e-22
000340 f3 c9 92 14 95 c3 53 10 15 07 d5 10 63 49 97 39
       1.4821888e-26 4.1763084e-29 8.40246e-29 0.00028855642
000350 96 c7 77 39 f4 20 19 3a 7e 22 24 39 a4 12 a9 0d
       0.00023630107 0.0005841397 0.00015653108 1.0419917e-30
000360 84 32 c2 10 36 c7 3f 0b 3f 7e ba 11 ff 16 10 39
       7.659734e-29 3.6935132e-32 2.942343e-28 0.00013741477
000370 61 43 82 12 20 7d 7a 39 dd 35 a4 39 c4 17 9d 8f
       8.220764e-28 0.0002388847 0.0003132065 -1.549055e-29
000380 23 a0 b1 39 b0 da 3d 8f 77 f0 8d 39 17 c5 aa 0d
       0.00033879382 -9.360537e-30 0.00027072776 1.0524507e-30
000390 94 f0 58 39 10 7a 8b 39 d8 ba 6a 39 6b 8a 23 39
       0.00020688988 0.0002660309 0.00022385584 0.00015596456
0003a0 85 86 bd 39 81 e5 08 9f fd 2e 02 95 a0 74 51 90
       0.00036149114 -2.898896e-20 -2.6290358e-26 -4.1307827e-29
0003b0 f4 06 ec 89 19 51 ab 39 64 7e 06 3a 2c 7c 60 16
       -5.6821472e-33 0.00032676084 0.0005130528 1.8133758e-25
0003c0 e0 57 4f 90 0f dd a6 09 22 f5 2c 0b 75 9b ad 39
       -4.0891248e-29 4.017093e-33 3.3310412e-32 0.00033112956
0003d0 41 74 cb 39 f5 ee db 39 b9 6a 77 38 fe de 8d 8f
       0.00038805793 0.00041948972 5.8988782e-05 -1.3989567e-29
0003e0 d0 39 4b 92 a3 e8 4f 99 fc c6 e6 8f c6 27 2d 38
       -6.4126765e-28 -1.074863e-23 -2.2756397e-29 4.1283456e-05
0003f0 c7 62 c8 8e 81 ca 8e 39 f8 ce a7 39 ab dc 32 b1
       -4.9398926e-30 0.00027235228 0.00032006926 -2.6027844e-09

conv1.pre_nns.0.0.bias f4 [32]
000000 b8 3a 4b bb 3b 07 c7 bc e3 d4 d0 39 a1 db 8a 3a
       -0.003101034 -0.02429544 0.00039831465 0.0010594019
000010 54 be 1a 3a 2a 46 f2 39 36 25 d3 ba e8 39 93 ba
       0.0005902995 0.00046210113 -0.0016109112 -0.0011232467
000020 a6 b0 2c b9 45 9e 35 3a 37 c3 8a b9 15 5f 5e 37
       -0.00016469005 0.0006928186 -0.00026466858 1.3254369e-05
000030 6d 57 86 39 43 1f a7 38 9a 19 9f ba 2a d4 41 3a
       0.0002562361 7.9690035e-05 -0.0012138367 0.00073939806
000040 c6 72 e6 38 28 b0 05 bc 73 c3 a6 3b a9 9d 47 bc
       0.00010988633 -0.008159675 0.0050892173 -0.012183585
000050 d5 cb c3 39 83 86 8b 3b 11 4b 02 b9 6f ca 63 3a
       0.00037345165 0.0042579784 -0.0001242573 0.0008689528
000060 3f 76 9d ba 1c 00 de 3b 3d 84 08 bb c1 5e d3 39
       -0.001201339 0.0067749154 -0.0020830773 0.00040315653
000070 c9 ab 3e 3c 15 b5 8b bb a2 60 12 bb 41 25 2c 3c
       0.011637636 -0.00426353 -0.002233543 0.010506929

conv1.pre_nns.1.0.weight f4 [32, 96]
000000 ec b3 74 bb b5 77 0e 93 f9 a9 82 bb da 77 3b 93
       -0.0037338687 -1.798194e-27 -0.0039875475 -2.366181e-27
000010 cd d0 48 bb 3d 9e 7f bb f3 05 d2 bb 4e e2 be ba
       -0.0030642033 -0.003900423 -0.0064094006 -0.0014563294
000020 b7 64 6f bb 1d c6 a9 1f 91 a5 77 9b 1a b5 d5 8e
       -0.0036528537 7.1902035e-20 -2.0484859e-22 -5.268295e-30
000030 31 61 a7 13 84 55 c7 bb 75 a5 e7 bb 26 4c 98 8d
       4.2252565e-27 -0.0060831923 -0.0070692846 -9.386055e-31
000040 bc c2 d1 0e e7 ee 55 0c 44 35 f9 99 dc 1d 98 bb
       5.171e-30 1.6480815e-31 -2.576751e-23 -0.0046422314
000050 fb 54 74 bb f1 da bf bb 9f 7d d3 ba ac 30 7c 1b
       -0.0037282098 -0.0058549573 -0.001613546 2.0860678e-22
000060 73 1d 9e 8e c3 22 5d 0f f8 55 bd 13 da 27 a1 ba
       -3.8978366e-30 1.0902836e-29 4.779508e-27 -0.0012295202
000070 18 fe 0a 0f a1 e2 69 bb 6f 12 b7 bb 38 e7 2c 8f
       6.852862e-30 -0.003568806 -0.0055869143 -8.524786e-30
000080 d5 43 8f bb 1e fa 38 0f 0e 5d a9 bb 55 17 05 14
       -0.0043721 9.120071e-30 -0.0051685637 6.7193855e-27
000090 71 d8 86 bb bf 85 3f bb cb 30 d5 bb 4b 99 ec ba
       -0.0041151573 -0.0029224006 -0.0065060607 -0.0018051056
0000a0 9a f8 9e bb 02 58 91 9e 27 32 9e 97 19 4b 72 1a
       -0.004851413 -1.5388871e-20 -1.0223171e-24 5.010509e-23
0000b0 34 17 6d 93 ca db 8c bb d0 61 bf bb f1 4c 4f 0f
       -2.9925046e-27 -0.004298662 -0.0058405176 1.0220706e-29
0000c0 e0 b8 d4 11 04 02 fe 09 40 d6 80 92 90 e8 a7 bb
       3.356164e-28 6.115017e-33 -8.130752e-28 -0.005124159
0000d0 7a d0 8f bb 8c c7 99 bb 08 a5 2b ba 3e 92 00 12
       -0.004388866 -0.0046929773 -0.0006547724 4.0569936e-28
0000e0 80 c4 14 0f a2 c5 12 94 f7 33 0e 8d cd 57 9b b9
       7.334808e-30 -7.4100925e-27 -4.381968e-31 -0.0002962932
0000f0 1d 51 44 13 a5 3b 9e bb 25 af be bb 0f 0c 6e b4
       2.477867e-27 -0.0048288875 -0.0058192187 -2.2169864e-07
000100 6b 14 9a b9 c3 1e 31 37 0d 76 89 b8 97 2c 25 3b
       -0.00029388382 1.0557184e-05 -6.554658e-05 0.002520358
000110 a6 e8 a3 37 cc a6 03 ba 13 04 d2 38 04 43 fe ba
       1.953945e-05 -0.0005022108 0.00010014339 -0.0019398634
000120 a7 43 c7 3a 9c e2 c8 b9 33 16 21 38 bb 70 10 37
       0.0015202657 -0.0003831581 3.8406066e-05 8.609316e-06
000130 0c e9 fd b8 cc f9 e5 37 f9 60 a3 3a f4 1a 29 ba
       -0.000121073885 2.7415248e-05 0.0012464813 -0.00064508547
000140 cd 23 e2 b8 c4 d6 92 ba 21 52 22 37 b3 e5 ef b8
       -0.00010783188 -0.0011202921 9.675075e-06 -0.00011439193
000150 52 9c f7 37 7d 25 cc 36 37 fb 8d b6 66 3a df ba
       2.9517487e-05 6.084038e-06 -4.2313727e-06 -0.0017030954
000160 dd e9 ee b8 4e d2 be 37 bc fc 2a 3a ba 52 89 b7
       -0.00011392285 2.2747696e-05 0.00065226457 -1.6370195e-05
000170 e8 38 de 39 b2 2b 10 bb 26 6f 42 38 d2 31 3d 3a
       0.00042385538 -0.00219987 4.635672e-05 0.00072172016
000180 1a 60 94 bb ac 73 10 94 bd e0 87 bb a4 23 c1 09
       -0.0045280578 -7.292954e-27 -0.004146664 4.6496576e-33
000190 5d 34 37 bb 64 4b 8e bb 9f 08 08 bc 19 e6 ab ba
       -0.0027954795 -0.0043424834 -0.008302837 -0.0013114839
0001a0 cd b5 6c bb 83 84 35 1f 3a 9f 3a 96 5c 01 a2 9b
       -0.0036119104 3.8437852e-20 -1.5075203e-25 -2.680153e-22
0001b0 49 3c 8c 17 ea 73 c4 bb aa 4c 06 bc ce af 46 13
       9.062506e-25 -0.0059952633 -0.008196989 2.5077792e-27
0001c0 4e 23 93 8b 55 61 71 0f 11 e8 e0 19 4e e3 b0 bb
       -5.667546e-32 1.1900963e-29 2.3254788e-23 -0.0053981906
0001d0 b0 ae 5d bb 61 21 dd bb 8f 2f d8 ba a9 7b 8c 11
       -0.0033826046 -0.006748364 -0.0016493666 2.2164317e-28
0001e0 26 98 6e 0a 19 24 88 8a 18 f7 07 09 26 2d 01 bb
       1.1487899e-32 -1.3109902e-32 1.6366217e-33 -0.0019710748
0001f0 49 60 f4 96 93 ad 81 bb 52 46 eb bb a6 c0 52 8d
       -3.948109e-25 -0.0039574592 -0.0071800137 -6.494314e-31
000200 c2 36 a8 bb 72 08 16 93 c3 1e db bb e7 9a e6 96
       -0.0051334808 -1.8936826e-27 -0.0066870167 -3.725626e-25
000210 73 f2 84 bb 3a f6 37 bb c3 ba 17 bc b5 16 4d ba
       -0.0040572225 -0.0028070346 -0.009260836 -0.0007823513
000220 aa a0 84 bb 86 04 69 1e 4c d1 00 18 6f fc e6 92
       -0.004047473 1.2335853e-20 1.664928e-24 -1.457727e-27
000230 18 7f 12 16 87 5b 6e bb 04 3d e6 bb fa ab 5d 92
       1.183389e-25 -0.0036370473 -0.0070263166 -6.994728e-28
000240 0c dc 12 91 e2 21 c2 91 47 0f 10 88 28 e3 ca bb
       -1.1585176e-28 -3.0628685e-28 -4.335138e-34 -0.00619163
000250 2d 41 99 bb 3f c2 8c bb e0 3f c1 38 0c c8 3f 06
       -0.004676959 -0.004295617 9.214855e-05 3.607008e-35
000260 f6 95 dc 94 6d c0 c3 8d 1d 86 23 8a 68 f0 4c b9
       -2.2273472e-26 -1.2064128e-30 -7.8733884e-33 -0.00019544514
000270 64 84 55 98 ae aa cc bb a2 83 06 bc 1f 74 b6 b5
       -2.7596445e-24 -0.0062459325 -0.008210095 -1.3593852e-06
000280 4a 4e 5f ba f9 9f 26 bb ca 2b a5 3a f7 9f 1a 3b
       -0.0008518441 -0.002542494 0.0012601551 0.0023593882
000290 fc fa f6 37 58 44 3d ba 38 fc 0b 39 6a 01 3e bb
       2.9442359e-05 -0.0007219962 0.00013350032 -0.0028992542
0002a0 cc 76 ab 3b 12 17 f2 b8 f2 39 2b 38 77 07 fc 36
       0.0052326676 -0.000115437564 4.0823543e-05 7.5110543e-06
0002b0 9a 51 5d b8 5b 0f de 36 2e ee 06 3b 04 88 fc ba
       -5.2766503e-05 6.617903e-06 0.0020588744 -0.001926661
0002c0 07 48 1a b9 df e4 a8 bb 16 da f6 36 e3 df 0d b9
       -0.00014713417 -0.0051542367 7.35676e-06 -0.00013530212
0002d0 02 f8 a0 3a 36 1a 9b 36 52 d9 52 b6 fa e6 3d bb
       0.0012280943 4.6224113e-06 -3.1418936e-06 -0.0028976784
0002e0 2b 53 55 ba 65 02 20 38 ec 2b a2 3a 48 a2 9a b7
       -0.0008137698 3.8149203e-05 0.0012372709 -1.8433799e-05
0002f0 d8 fc 3f 3a c6 0e 67 bb 72 1f ad 38 af 98 e3 3a
       0.00073237484 -0.0035256608 8.25514e-05 0.0017364229
000300 ed d0 64 3a a7 c4 0a 14 8a ef 3c 3a a3 41 56 15
       0.0008728642 7.006002e-27 0.0007207325 4.3268734e-26
000310 df 7c 11 3a ee e8 33 3a a2 9f dc 3a 34 be c5 39
       0.0005549918 0.00068630173 0.0016832242 0.0003771648
000320 b4 ba 15 3a 65 fc eb 21 0f 8d 9d 96 81 33 32 8a
       0.000571172 1.5991028e-18 -2.5453738e-25 -8.580075e-33
000330 04 e0 ac 12 03 69 92 3a 3e a0 c2 3a 23 d2 2f 0f
       1.090995e-27 0.0011170212 0.0014848781 8.668637e-30
000340 09 e5 27 17 50 a3 ad 0f 88 0c 86 8c 71 e8 81 3a
       5.4249693e-25 1.7122023e-29 -2.065351e-31 0.0009911192
000350 79 09 35 3a 5a 0a a5 3a b8 fb de 39 c2 c4 0f 0c
       0.00069060136 0.0012591586 0.00042530685 1.1075529e-31
000360 43 05 c3 13 70 fb fb 1b 5d 00 53 12 d1 6a f1 39
       4.923011e-27 4.1686954e-22 6.658031e-28 0.00046046686
000370 ee 7e 07 15 27 2d 49 3a 17 55 bb 3a b8 27 5f 95
       2.7363163e-26 0.000767427 0.0014292327 -4.5065824e-26
000380 4e 1e 54 3a 20 3c 39 10 34 40 20 3a 58 eb cb 92
       0.0008091674 3.6531135e-29 0.00061130826 -1.2869118e-27
000390 72 8b 0b 3a 3f 39 49 3a c8 ed d0 3a ec 65 91 39
       0.0005323208 0.0007676072 0.0015940005 0.00027732493
0003a0 ef 21 34 3a 2c 50 c9 1c 3f 25 91 18 a7 12 e9 13
       0.00068715116 1.3321788e-21 3.751923e-24 5.883586e-27
0003b0 1f b3 0b 90 0c 7b b6 3a e2 2b c0 3a ec eb 47 15
       -2.7550906e-29 0.0013922169 0.0014661516 4.037384e-26
0003c0 e6 e2 66 90 44 c5 04 8f ba 86 f5 8f 52 3b 8a 3a
       -4.5534298e-29 -6.5460944e-30 -2.421076e-29 0.0010546243
0003d0 5c 54 1a 3a 81 93 cb 3a 54 89 e9 37 54 ca 74 13
       0.00058872043 0.001553163 2.7839713e-05 3.0896885e-27
0003e0 9f ab a2 0e 99 42 29 0d 9a 33 a9 8f 40 fd eb 39
       4.010135e-30 5.215731e-31 -1.6684563e-29 0.0004501138
0003f0 fd 20 5c 13 f2 d9 30 3a 62 88 b4 3a bb 34 67 b3
       2.7784168e-27 0.00067463436 0.0013773555 -5.3831837e-08

conv1.pre_nns.1.0.bias f4 [32]
000000 6b bb 9e bb 04 44 ad bb 71 e1 83 3a 0a 5e 96 3c
       -0.0048441193 -0.005287649 0.0010061694 0.018355388
000010 12 f5 96 39 ef da da 3b bf a6 9a b8 03 02 4b b9
       0.0002879282 0.006678931 -7.374351e-05 -0.00019360338
000020 0c 7a 6d 3c 74 42 ed 39 e5 3a dd 3b 94 8f dc 3b
       0.01449443 0.00045253674 0.0067514055 0.006730983
000030 31 f1 32 3c 96 3b 66 3b 64 1d 05 ba e0 d5 bc bb
       0.010921762 0.003513073 -0.0005077927 -0.0057628006
000040 48 de 02 bb f4 8b 93 ba 85 1b 38 bb 38 2e 27 3c
       -0.0019968916 -0.0011256919 -0.0028092575 0.0102038905
000050 05 16 3e 3c 5d 88 0f bb e7 3c 25 3c 17 98 51 bb
       0.01160193 -0.0021901347 0.010085321 -0.0031981522
000060 55 90 91 bb 94 0e 14 3b 8b 43 86 39 55 59 78 3a
       -0.0044422545 0.0022591697 0.00025608795 0.0009473761
000070 b9 03 08 bc 2c d2 15 bc 76 61 f8 bb e4 3b d5 3a
       -0.008301669 -0.009144347 -0.0075799776 0.0016268459

conv1.post_nns.0.0.weight f4 [16, 416]
000000 f7 3a 99 bc 7e 19 b9 b8 d9 57 88 bd f4 76 5c 8d
       -0.018704874 -8.826236e-05 -0.066573806 -6.793592e-31
000010 a7 01 65 3a 8c 04 11 3a ae d5 9d bc db 0d 05 bc
       0.0008735903 0.00055319886 -0.01926693 -0.008120979
000020 b6 4b 46 bc c9 3f 39 bc f0 bd 27 ba ca 4e 10 8f
       -0.012103012 -0.0113067115 -0.00063988473 -7.114922e-30
000030 07 4d b8 0f bb 14 8f 3c a0 a0 ef bc aa 49 8f 8b
       1.817347e-29 0.01746594 -0.029251397 -5.5192434e-32
000040 5f 8b cb b9 fe ef 86 b8 91 b4 4b 11 f1 c6 83 bd
       -0.00038823017 -6.43432e-05 1.6069518e-28 -0.064344294
000050 e9 15 c7 b7 40 c3 ab bc 01 5e 99 3c 56 ef b0 b9
       -2.3732851e-05 -0.020967126 0.018721582 -0.00033747655
000060 a7 13 c7 0f 57 29 4c 0c 8d 7e ab 09 90 72 c2 3c
       1.9630485e-29 1.5728029e-31 4.128576e-33 0.023736268
000070 ce ad 4c b9 27 3a 5c 3c fc 85 08 bc 5a cd cf b8
       -0.00019519703 0.013441599 -0.008332726 -9.908779e-05
000080 9e a1 f4 38 9c 22 4d 3b 5f 35 21 b7 a4 ba af 38
       0.0001166493 0.0031301146 -9.608774e-06 8.379415e-05
000090 be b9 e2 b7 70 61 aa 37 5b 0f f7 38 a6 55 80 38
       -2.7027792e-05 2.0310952e-05 0.00011780738 6.119469e-05
0000a0 78 43 d5 b7 be cb 0b b7 e9 67 ca 37 d1 34 ef b8
       -2.5422996e-05 -8.332483e-06 2.4128663e-05 -0.00011406246
0000b0 e8 28 d6 37 8f 06 4d b9 0b c8 93 38 22 9d 51 b9
       2.5529836e-05 -0.00019552767 7.046767e-05 -0.0001999033
0000c0 f1 ed 37 b9 11 ac 5f 3a 22 5d 47 b9 fb 01 ae 3a
       -0.0001754088 0.0008532415 -0.00019012814 0.0013275737
0000d0 ab af 93 38 09 20 12 ba a6 b3 45 38 19 26 e9 b8
       7.042227e-05 -0.00055742316 4.713577e-05 -0.00011117402
0000e0 14 34 6c 39 bb 58 4e ba 3a e1 cd 39 6a fd c6 b8
       0.00022526114 -0.0007871498 0.00039268454 -9.488578e-05
0000f0 b2 b2 c4 ba 5a ce fc 39 91 ce 8b 39 6b fa a9 ba
       -0.0015006869 0.0004821893 0.0002666605 -0.0012968307
000100 32 9b 44 39 40 06 e2 3a e8 6d 07 b8 ff 03 4e 38
       0.00018749831 0.0017244294 -3.2288866e-05 4.911795e-05
000110 c3 da f2 b7 44 44 9d 38 93 3f d6 38 84 5a 13 b6
       -2.8950517e-05 7.499059e-05 0.00010216157 -2.1957394e-06
000120 a8 8f d0 b7 e5 b8 81 b6 90 8d 97 37 8f 89 d6 b8
       -2.4862427e-05 -3.866024e-06 1.8066523e-05 -0.000102299375
000130 34 0b d4 37 ec 05 32 b9 a2 3f d1 38 38 89 7b b8
       2.5277586e-05 -0.00016977609 9.977749e-05 -5.997086e-05
000140 dd 8f 11 b9 7e c3 2b 3a 44 b5 40 b9 49 fe 84 3a
       -0.00013881871 0.0006552263 -0.00018378074 0.0010146584
000150 0b 43 11 b8 35 57 08 ba 01 3d 80 38 37 44 22 b9
       -3.4633133e-05 -0.0005200983 6.1148785e-05 -0.00015474936
000160 bc 99 67 39 ed 7d 69 ba d3 7b ad 39 38 60 e2 b8
       0.00022087147 -0.0008907009 0.00033089388 -0.00010794442
000170 2c f3 0a bb 40 12 be 39 3d c8 e7 b8 92 97 94 ba
       -0.002120207 0.0003625322 -0.00011052236 -0.0011336675
000180 dd 69 c1 38 db b0 04 3b 46 c3 f9 b7 b4 68 ea 38
       9.222676e-05 0.0020247016 -2.9774044e-05 0.00011177492
000190 3d c7 32 b6 9c e0 51 b6 d1 9c fb 38 6d a2 a1 37
       -2.664004e-06 -3.1274167e-06 0.00011997822 1.9268331e-05
0001a0 1d 39 2e b8 75 5e c9 b7 55 de c8 37 69 04 e1 b8
       -4.1538024e-05 -2.4005052e-05 2.394539e-05 -0.000107296575
0001b0 da e6 85 37 e0 63 18 b9 2e cc 58 38 1d 2f 7a b9
       1.5962334e-05 -0.00014533056 5.168857e-05 -0.00023859409
0001c0 d0 ed 00 b9 ff 2b 46 3a 36 bd f6 b9 15 fb f8 3a
       -0.00012295623 0.00075596565 -0.0004706175 0.0018995727
0001d0 65 19 c4 38 9f 12 b0 b9 35 f5 10 38 c5 91 d6 b8
       9.3507384e-05 -0.0003358321 3.4560642e-05 -0.00010231467
0001e0 7e 0e 24 39 dd 6f 4c ba a4 32 8f 39 6a d7 cc b8
       0.00015645658 -0.00077986513 0.00027312816 -9.767602e-05
0001f0 ac ab 7d ba f0 d2 6d 39 21 4c 8b 39 27 00 86 ba
       -0.0009676765 0.00022680662 0.00026568866 -0.0010223434
000200 89 20 c4 b6 96 21 fa b7 17 56 4b 2e 23 eb 08 b6
       -5.845043e-06 -2.9817962e-05 4.623332e-11 -2.0402447e-06
000210 45 5d 21 31 0e 1b ce 34 0e ad f5 ad 7d 5c 3a 32
       2.34816e-09 3.8390175e-07 -2.7930127e-11 1.0847654e-08
000220 09 91 0c a0 49 d1 9a 2d 7c ed 1b 9f 4f ed 7f ab
       -1.190645e-19 1.7600714e-11 -3.301897e-20 -9.092353e-13
000230 d9 e3 26 a7 a8 6f 06 34 d1 f8 e3 af 85 cd 4d b7
       -2.3160644e-15 1.2520343e-07 -4.1467854e-10 -1.2266803e-05
000240 88 14 b3 35 65 d8 00 35 25 fa 86 b7 e6 70 f1 b6
       1.3342515e-06 4.799861e-07 -1.6090527e-05 -7.195503e-06
000250 8a d1 9a b3 49 21 21 b5 52 26 3b ad 93 0b 6e b3
       -7.209299e-08 -6.002561e-07 -1.0638228e-11 -5.542422e-08
000260 10 16 c5 28 3b cb df b6 bb 10 5d 37 44 79 c8 a0
       2.1880962e-14 -6.669577e-06 1.3176522e-05 -3.3961565e-19
000270 a8 d0 32 b7 1d 7a a4 b7 56 a5 ee b2 56 a0 9b b7
       -1.0658208e-05 -1.9607187e-05 -2.7782033e-08 -1.8552102e-05
000280 76 07 11 bc b4 e4 89 3b 04 9b 8e b8 23 e7 f2 3a
       -0.0088518765 0.0042081717 -6.7999616e-05 0.0018532019
000290 51 25 21 39 7a 7f 42 3b 57 34 b4 39 a2 57 82 ba
       0.00015368058 0.0029678033 0.00034371272 -0.000994433
0002a0 73 bd 1c 39 2c 58 e5 b9 cb 70 dc 37 14 eb 1b 39
       0.00014947895 -0.00043743977 2.6278567e-05 0.00014869525
0002b0 13 15 db b9 12 a3 a1 39 05 37 11 3a be 32 2c bb
       -0.00041786637 0.0003082981 0.00055395096 -0.0026275362
0002c0 d8 9c 04 bb 32 74 4c 3b 76 dd 34 bb e8 a0 91 3b
       -0.0020235088 0.0031197187 -0.0027597821 0.0044442303
0002d0 11 26 1e 3a 50 af 59 ba 6e 20 8d 38 64 c3 13 bb
       0.0006032894 -0.00083040167 6.7294444e-05 -0.0022546882
0002e0 0e d3 ad b9 62 9d 09 bb 74 ad 9c 3b 0d e0 f9 b9
       -0.0003315438 -0.0020998348 0.0047814194 -0.00047659912
0002f0 36 5b 78 bb d9 04 c0 3b 38 98 50 3b 98 65 a7 bb
       -0.0037896163 0.005859953 0.003182901 -0.0051085465
000300 c9 f2 60 bc 24 ab 5f 3b 6b 55 85 b9 6e b2 80 3a
       -0.0137297595 0.0034129107 -0.00025431378 0.0009818801
000310 e2 ec cd b9 bb f2 8e 3a 2d 8d 22 b9 ed 0e 35 bb
       -0.00039277138 0.001090608 -0.00015502116 -0.0027627305
000320 37 e8 35 39 c9 4f 44 ba 43 57 91 38 b5 01 8a 39
       0.00017348012 -0.00074886956 6.9303926e-05 0.00026322683
000330 60 49 48 ba d3 c8 82 bb 59 e9 c8 b9 83 ab 44 bc
       -0.0007640328 -0.0039912253 -0.0003832083 -0.012003782
000340 98 83 e3 ba 9c 49 aa 3b 97 75 90 b9 ee 19 b1 3b
       -0.0017357944 0.005196763 -0.00027553432 0.0054047024
000350 79 76 9c b9 36 9a fb b9 90 a1 7e 3a c5 f7 aa bb
       -0.00029842908 -0.00047989347 0.0009713406 -0.0052175247
000360 0a 3d 12 39 0c 04 9f ba 52 01 e0 3a 07 5c 04 b9
       0.00013946384 -0.0012131943 0.0017090237 -0.00012622784
000370 a9 0e b1 bb 0d a8 02 3c 9c af cb 3b e1 8a 3e bb
       -0.005403359 0.007974637 0.0062160026 -0.0029074477
000380 00 15 05 bb a3 d8 99 3b a2 ee 7b 39 c8 ba 90 3b
       -0.0020306706 0.0046950146 0.00024026123 0.0044167973
000390 0b 42 23 3a 83 c5 ab bb 10 9c 65 3a fc 01 f6 39
       0.0006227798 -0.005242051 0.0008758912 0.00046922255
0003a0 45 cd 27 38 ff db 65 b8 e8 8f 54 38 39 86 a6 3a
       4.0007075e-05 -5.4802742e-05 5.0678762e-05 0.0012704796
0003b0 65 d9 9c b9 e8 af 02 ba cb f6 a5 3a 30 e7 b3 ba
       -0.0002991661 -0.00049853185 0.0012662051 -0.0013725515
0003c0 4d 72 c8 b9 b4 75 d5 3a 55 00 91 bb f2 5c 13 3b
       -0.00038232133 0.0016285689 -0.0044250884 0.002248582
0003d0 36 ac c0 39 02 93 c1 ba a0 57 96 b9 87 a4 18 ba
       0.000367494 -0.0014768543 -0.00028675515 -0.00058228563
0003e0 09 8e a8 b9 22 85 4d bb 28 fe 16 3c 23 17 30 ba
       -0.00032149281 -0.003135987 0.009215869 -0.0006717315
0003f0 51 c9 1c bb c9 62 91 3c 91 44 96 3a 13 bf aa bb
       -0.0023923705 0.0177473 0.0011464526 -0.005210766

conv1.post_nns.0.0.bias f4 [16]
000000 67 a8 6e bb bb 25 bb 3b f9 63 8b bc c5 ac a2 bc
       -0.0036416294 0.005711285 -0.017015444 -0.019857774
000010 a9 f9 3a 3d da ce fc bc 90 7c 8d 39 92 75 1f bd
       0.04564825 -0.030860353 0.00026986422 -0.038930483
000020 72 a6 f4 3b b8 bc ac 3c 15 11 8c 3c ba cc ae 3d
       0.007466131 0.021086082 0.01709799 0.08535142
000030 f7 cb c0 bc 25 11 90 3d 82 58 8c 3c 90 46 0e bc
       -0.023534758 0.0703452 0.017132048 -0.008683816

conv1.post_nns.1.0.weight f4 [16, 416]
000000 1f ac 57 bb f1 09 4f b8 46 81 95 bc 08 5a f9 10
       -0.0032908989 -4.9361905e-05 -0.018250119 9.83519e-29
000010 29 b4 d2 bc 5f 38 5f bd 10 49 48 bd fe 21 16 bd
       -0.025720673 -0.05449712 -0.048897803 -0.03665351
000020 79 ee 13 bd 26 27 10 3b 50 22 97 b9 a7 20 23 0f
       -0.036116097 0.002199599 -0.0002882653 8.042809e-30
000030 b9 46 b4 8b 95 ef 62 bc 82 53 b9 bc 5c 37 d8 0e
       -6.943989e-32 -0.013851066 -0.022622827 5.330142e-30
000040 c6 4a 25 ba 3c 07 02 b9 38 b6 c0 0c 2d 70 3e bd
       -0.00063053926 -0.00012400461 2.9691953e-31 -0.046493698
000050 c2 46 e8 bc 87 5f 2f bd 25 1d 12 bd ee f5 33 ba
       -0.028354052 -0.04281571 -0.035672326 -0.00068649545
000060 87 63 14 11 1b c6 30 91 e5 1a 2e 8e a5 37 db 3b
       1.1705811e-28 -1.3944998e-28 -2.1460105e-30 0.006689983
000070 cc d5 d6 b9 6b 80 f0 bb 15 d8 23 bd 59 fd dc b8
       -0.00040976552 -0.0073395274 -0.040000994 -0.00010537607
000080 3d 44 4d b9 20 00 bb 39 37 79 44 b8 3a 65 eb b9
       -0.00019575744 0.00035667513 -4.684293e-05 -0.00044898113
000090 b2 91 4e 36 a9 79 6c b9 d5 e7 0b 37 3f cd 0a 38
       3.0781198e-06 -0.00022552036 8.339023e-06 3.3092914e-05
0000a0 c0 9b 55 ba b7 49 c3 35 ef 86 2b 39 fa 5d cc b9
       -0.0008148514 1.4550086e-06 0.00016358097 -0.0003897993
0000b0 bc a1 0f ba d6 09 14 b9 bf 85 bd b7 38 5d 98 39
       -0.00054791174 -0.00014118044 -2.2592836e-05 0.00029061153
0000c0 3d 10 86 38 14 f4 ad 37 19 97 b1 b8 44 a0 00 3a
       6.3926425e-05 2.0736865e-05 -8.468162e-05 0.0004906694
0000d0 7e 97 42 b7 62 6e 7f 38 d0 dc 0d ba cb ba 17 39
       -1.1598573e-05 6.089954e-05 -0.0005411627 0.00014470068
0000e0 01 33 cc 39 f8 12 09 b9 c6 98 86 36 30 ed ce b7
       0.00038947913 -0.00013072405 4.0112964e-06 -2.4667563e-05
0000f0 68 dd 0a ba 40 6e cf 39 12 e8 e8 b9 8c 34 df 38
       -0.00052972743 0.0003956426 -0.00044423394 0.00010643256
000100 1d c0 d1 b8 65 58 f3 b8 28 24 40 38 f7 85 3b 3a
       -0.000100016805 -0.00011603608 4.581004e-05 0.0007153446
000110 05 b5 7c 36 89 1b a2 38 e3 86 fa 36 ad 74 14 38
       3.7656293e-06 7.729891e-05 7.4662835e-06 3.5394612e-05
000120 a1 fd 66 b9 11 1c da b7 61 09 9f 39 60 99 0d ba
       -0.00022028993 -2.6000695e-05 0.0003033383 -0.0005401578
000130 9f e3 58 39 bc 16 0b 37 db d9 9b b4 82 7b 87 39
       0.0002068416 8.290339e-06 -2.902951e-07 0.00025841227
000140 c6 5d 25 37 89 05 86 38 89 93 d3 38 9e d6 ef 39
       9.8566e-06 6.390649e-05 0.000100887446 0.00045745535
000150 7d bf a9 38 54 39 6b 38 fc 25 87 b7 84 e2 08 b9
       8.0942154e-05 5.6081757e-05 -1.6110942e-05 -0.00013054354
000160 8c 4d b9 38 80 90 0d b9 1a ba 4e 37 51 f7 11 b8
       8.835932e-05 -0.00013500638 1.2321887e-05 -3.4801025e-05
000170 7b 11 25 39 72 7e 0a 37 5e bc a5 37 64 d2 6c 37
       0.00015742138 8.254881e-06 1.9757248e-05 1.4115682e-05
000180 ba 8b 86 37 bc 09 53 39 45 5b 17 b8 99 e4 4f ba
       1.603911e-05 0.00020126154 -3.6086207e-05 -0.0007930487
000190 5f f1 7a 37 f4 94 0c b9 59 dd d6 37 40 22 99 37
       1.495736e-05 -0.0001340693 2.5613861e-05 1.825497e-05
0001a0 39 6d 43 ba 15 5b 3f b6 08 66 43 b9 ff a0 b6 38
       -0.0007454935 -2.8514235e-06 -0.00018634659 8.708424e-05
0001b0 c0 bf 16 ba 89 6c 12 b9 76 ce 22 35 4e cf 0e 39
       -0.0005750619 -0.00013964078 6.0650143e-07 0.00013619402
0001c0 22 ba 8e 38 31 1b 95 38 6f 74 06 39 7c 1d 77 39
       6.8057576e-05 7.1099385e-05 0.00012822611 0.0002356674
0001d0 af ba b0 b9 62 f2 9c 38 46 3e c6 b8 df 6c 1e 39
       -0.00033708426 7.483807e-05 -9.452975e-05 0.00015108612
0001e0 13 78 d1 39 de 3d 19 38 b2 0b 91 b5 1a e1 c6 37
       0.0003995305 3.653566e-05 -1.0806746e-06 2.370826e-05
0001f0 04 66 c9 39 a7 a2 5e 39 b3 30 83 39 ea b8 48 b8
       0.00038413715 0.00021232163 0.0002502255 -4.785593e-05
000200 6e 60 77 1e 9b fd 01 b3 3d 0f 52 2d 9b 55 b4 37
       1.3096012e-20 -3.0265806e-08 1.19405015e-11 2.1497535e-05
000210 32 2c 2c 2c 2b 99 11 b2 69 f3 84 2a c1 86 9c a3
       2.4467203e-12 -8.474937e-09 2.361681e-13 -1.6970624e-17
000220 39 95 5e b6 68 62 83 a1 7c 21 5c 2e bb a9 6f 34
       -3.3167437e-06 -8.902953e-19 5.005195e-11 2.2320357e-07
000230 82 71 9f 35 f1 d7 9e 28 76 a7 6f af f7 a3 c6 b3
       1.1879458e-06 1.7635173e-14 -2.1796417e-10 -9.2499185e-08
000240 ef b0 db b1 00 c3 11 ac 2a 34 72 a5 bd b0 39 34
       -6.393854e-09 -2.0713986e-12 -2.1007828e-16 1.7293765e-07
000250 03 03 bc 34 7a 50 40 a4 0c 03 4b 35 f5 31 c5 2c
       3.501992e-07 -4.170153e-17 7.5627827e-07 5.604623e-12
000260 98 ad 5e 34 03 47 11 ad c8 c7 20 25 68 17 3d a9
       2.0738514e-07 -8.2580635e-12 1.3945476e-16 -4.1986732e-14
000270 1d d3 dc 34 a8 8c 55 35 b4 19 64 35 65 6d e2 20
       4.1131798e-07 7.9553365e-07 8.497402e-07 3.835828e-19
000280 11 ea ba bb 90 75 7b bb b7 61 02 3b eb da 8e 3c
       -0.0057041724 -0.0038369633 0.0019894668 0.017438373
000290 96 3b e9 39 bb 46 24 3c 4f 68 01 b9 05 07 19 ba
       0.00044485618 0.010026629 -0.00012341257 -0.0005837533
0002a0 a5 36 f7 3b 74 02 2c 3a bd 3e 14 3c b6 98 cd 3a
       0.007544356 0.0006561645 0.009048161 0.001568577
0002b0 96 a1 70 3c 45 f2 9e 3b fd 1f 6d ba 8f 21 8d bb
       0.014686963 0.004850658 -0.0009045599 -0.004306979
0002c0 4f 52 1b 3b 7d fd 10 bb 7e 9f 58 bb e0 17 67 3c
       0.0023700183 -0.0022123747 -0.003305405 0.014104813
0002d0 39 9e 8b 3c ba 22 6a bb cb c3 47 3c 2e 1e 91 bb
       0.01704322 -0.0035726265 0.012192677 -0.0044286465
0002e0 c9 9f 9b bb 63 71 a2 3a ec 62 81 39 df dd b8 3a
       -0.0047492725 0.0012393411 0.000246785 0.0014104209
0002f0 b1 c8 2e bc c9 99 27 bc c0 6c 13 bc 03 d3 0f 3b
       -0.010667966 -0.010229536 -0.008998096 0.002194584
000300 36 1c af bb 5f 9f 44 bc 91 21 38 3b 44 2c 19 3c
       -0.005343939 -0.012000888 0.002809618 0.009348933
000310 ef ed 0f 3a af cb 49 3c c5 22 a4 3a b3 c2 95 ba
       0.0005490472 0.012316628 0.0012522569 -0.0011425823
000320 40 ed 8c 3c 2b 31 e3 37 28 8b fe 3b 84 51 49 3c
       0.017202973 2.7083404e-05 0.0077680536 0.012287501
000330 a3 06 f1 3b ce fb 5b 3b 27 b8 e5 b8 2b a5 0d bc
       0.0073555275 0.0033566835 -0.00010953872 -0.008645336
000340 55 4b e6 ba 16 e5 27 bb d1 54 aa bb 8a 01 77 3c
       -0.0017570058 -0.0025618724 -0.005198099 0.015076051
000350 fe b3 3f 3c ad b8 66 bb 2d 91 6f 3c bf 6b 9d bb
       0.011700628 -0.003520529 0.014622015 -0.004804104
000360 2d 12 c9 bb 9c 0e e7 39 df ff 2a 3a bc 76 bf 3a
       -0.0061362 0.00044070638 0.0006523113 0.0014607529
000370 7b 77 0b bc 76 21 11 bc 63 20 4f bc 88 5c 78 3b
       -0.008512373 -0.008858075 -0.012641999 0.003789695
000380 33 62 b8 bb d0 04 48 bc 8c d5 f4 ba 3c b8 9d 3c
       -0.0056269406 -0.012208179 -0.0018679365 0.019252889
000390 20 6a ae 37 d1 ba d7 3b eb 67 41 ba de a6 86 ba
       2.0791835e-05 0.0065835495 -0.00073778507 -0.0010273119
0003a0 5c a0 78 3c cb 21 63 3a 6d 39 29 3c 4c f4 69 3c
       0.015174951 0.00086643983 0.010328633 0.014279436
0003b0 e7 02 47 3c cf b5 c3 3b 71 e5 b0 ba c0 d8 23 bc
       0.012146688 0.005972601 -0.0013496113 -0.010000408
0003c0 b9 16 f6 ba 50 20 e3 ba 7f c9 ee ba eb f6 2f 3c
       -0.0018775082 -0.0017328355 -0.001821801 0.010740022
0003d0 7a 07 96 3c 34 cb 42 bb b3 96 67 3b 88 8a 8e bb
       0.018314112 -0.002972317 0.0035337626 -0.0043500103
0003e0 b9 b7 1e bc ba f9 93 3b bc 78 72 ba 2e 99 aa 3a
       -0.009687358 0.0045158537 -0.0009249558 0.0013015622
0003f0 87 ba 47 bc 34 92 47 bc 51 43 14 bc 24 c0 85 39
       -0.012190468 -0.012180854 -0.009049253 0.00025510893

conv1.post_nns.1.0.bias f4 [16]
000000 2a 9b 72 bd da 42 2b 3c a1 a3 91 bd 3e d0 e2 3c
       -0.059230007 0.01045295 -0.07111288 0.027687188
000010 e8 a1 68 3d 9b d7 38 3d 77 e2 ea 3c b2 7a 81 bd
       0.05679503 0.045127492 0.02867244 -0.063222304
000020 6f 96 64 bd 19 28 4a bd 32 b9 e1 bc 58 79 09 3d
       -0.055807527 -0.049354646 -0.027554128 0.033562988
000030 cc 4d 7b bd e9 9e 47 bd 04 a9 7e 3d 6f e5 68 3d
       -0.06135349 -0.048735533 0.062172905 0.05685943
