backend/gnn_model.pth (torch, 16024 bytes, 8 tensors)

conv1.bias f4 [64]
00000000: a014 ab3c 0412 c137 1e89 0080 eddb 07b2
00000010: 3eb2 390a ad89 0080 2491 393c 4605 c5ba
00000020: 4784 9a92 7f66 0abd 6f8e 15b9 356f 9533
00000030: 86f9 cc28 b26a 02bd 544a ed3c 8a60 23bd
00000040: 16a7 dfbc ffb4 04bc b2ba b43c fef6 2f3d
00000050: 10d5 1134 7617 013c 4799 488b d160 503c
00000060: 5f8a 0080 c5cf 453b f6df 44bc ae17 863a
00000070: ab05 6c3a 3d4f b33c 11d3 12bd e1df 57bc
00000080: cd88 0080 1d41 0634 1d40 5ebb 14fc 703d
00000090: 6283 77bc 43f4 efbc f413 0680 f65e ce3b
000000a0: 8d2b 6e3a 0be5 91ba f8e6 3a36 508e 513c
000000b0: b189 0080 8a8d 0080 eb8e 0080 5431 d3bb
000000c0: 18a2 0080 3b81 fbbc 3fc6 0bbc 896c 263c
000000d0: 7c93 98ba 98e0 a8bc 02d7 03bc f26d a73c
000000e0: 0f59 b93b 4536 4423 8e77 1abd e5d2 3ebb
000000f0: 0d0a 4d3c 6a18 23bd fd29 b63c 2b62 a2bc
0.020883858 2.3015782e-05 -4.9188e-41 -7.90804e-09 8.9409496e-33 -4.9389e-41 0.011326108 -0.0015031479
-9.751375e-28 -0.033789154 -0.00014262808 6.9585816e-08 2.2756763e-14 -0.031840034 0.028966106 -0.03988699
-0.027301352 -0.008099793 0.02206168 0.04296016 1.3581689e-07 0.007879129 -3.8633912e-32 0.012718395
-4.9638e-41 0.0030183655 -0.012016287 0.0010230446 0.000900353 0.02188837 -0.03584582 -0.0131759355
-4.9075e-41 1.250341e-07 -0.0033912726 0.05883415 -0.015107008 -0.029291278 -5.58171e-40 0.0062979413
0.0009085469 -0.0011130882 2.7850601e-06 0.012790278 -4.9394e-41 -5.0775e-41 -5.127e-41 -0.0064450894
-5.8148e-41 -0.03070127 -0.008531152 0.010157713 -0.0011640633 -0.020614907 -0.008046867 0.020438168
0.0056563686 1.0636673e-17 -0.037711672 -0.0029117402 0.012514603 -0.039818205 0.022236818 -0.0198222

conv1.lin.weight f4 [64, 7]
00000000: 0c75 1ebd 6dee 353e 63f6 753e cee6 fabd
00000010: 7692 85b9 fb73 0ebe 05da 553e 14d0 dabb
00000020: be87 7f1a 2284 c9bb 112e c6bb 175b 2336
00000030: b006 cdbb b135 f1ab 7789 0080 5189 0000
00000040: 3e89 0000 c788 0000 bd90 0000 f488 0080
00000050: 6a89 0080 7f3a 51bc 2af2 d2ac 3971 3cbc
00000060: 5cfe 40bc fa88 0080 c493 2cbc 64be c4b3
00000070: 89d9 ce92 17fe 0300 086e 8a0e 970f 8f0e
00000080: e889 a108 f9d0 db0e 7341 0500 c957 9092
00000090: 8f89 0080 1479 198e 8fdc 168f bb88 0080
000000a0: 0d3e 728d d289 0000 f98c 483e 6a28 a3bd
000000b0: 343b 543e 05ff 1dbe 8f08 13bc 022a 68be
000000c0: 0904 ebbd e188 2abe f723 cdbd d278 69bd
000000d0: f4c0 663e b758 1b3d 22af 3c3c afdb 673d
000000e0: 6f42 0db6 ec89 0000 cc25 20b5 745e 1db5
000000f0: 3e89 0000 2d9f 34b5 f688 0000 b3e5 26bd
00000100: 094c e43d c92f 593e 253a 0abe 4eb3 6c3b
00000110: 9972 883d 9869 e6bd 2a63 d43c d723 c5ba
00000120: b7dd b73c 6171 c83c af94 0c3a 30af b23c
00000130: f0b0 0739 cbad e6ba cf88 0000 33ea a7ba
00000140: 1cb0 a6ba 91e4 de31 6bbc a7ba ef0c fe8d
00000150: a7e7 34ab b7fe 9d18 5db6 09a9 8b1b cfa8
00000160: 5bb2 4727 9548 39a9 6719 378c 94fa 303e
00000170: 9961 fdbd 2863 7e3e 4c9b 763e eb6d febb
00000180: a31e 6f3d 4430 9dbd 1be1 993d ee3b ef3d
00000190: 2e1b f7bd 8ba9 473e 5fcb 613c 940f 2c3e
000001a0: 7b22 2fbe bea2 363e 9179 83bd 3524 553e
000001b0: 624c 5e3e 7906 c13c 64a1 233e 96c7 11be
000001c0: dd09 71be 9478 223d af61 123d 2e63 423e
000001d0: 0e96 1e3d 8e38 053e ab70 413e 5644 f13d
000001e0: 0fd5 13be fba6 cfbd a866 663e 6b27 61bc
000001f0: f822 e6bb 2d9b e9bd 5e6c 933e 1fb6 d2bd
00000200: 019a 8e3e 893d 2cbc a836 6e3c e8b9 173e
00000210: 2fc8 16be 164d 833e 1aa0 d93d b361 10be
00000220: 4293 c7bd 6b96 583c ce66 b43b 8156 043e
00000230: 827b 91b6 5089 0000 4eec 29b6 a8b1 38b6
00000240: 0189 6032 ad4d 21b6 de88 0000 2e18 43b9
00000250: 4549 a9bd 9a46 05be bca4 6cbd e9d4 c43b
00000260: 03a0 3c3e de0b 33bd be6e 2ba8 9389 0000
00000270: f396 f2a4 989f 1aa5 4c66 2680 d4e7 44a5
00000280: 8d89 0080 5c5a 083d 84e7 13be a86f 7f3d
00000290: 98db c43d aacf 393c 2ffc 2fbe 3fa8 133e
000002a0: c888 0000 e789 0080 f288 0000 3089 0000
000002b0: 478b 0080 c888 0000 a189 0000 8cbb 023e
000002c0: 0955 efbd dccf 17bd 345d 1ebd 79ba d7bb
000002d0: 1324 95bd dc81 903d 4e26 5ebd d8ba 693d
000002e0: 066e 4f3d a735 6e3c 350c 1db9 a83e 3abc
000002f0: 2a43 0ebd be65 203e 5d3a ca3d 7d96 d23d
00000300: c018 803e 6dfd 4cbd 723f e8bd eee0 743d
00000310: c00e 38bc d025 eebd 6b1b 083d f12d 213e
00000320: 90db 16bd c47a 383d 0f17 d1bc 13f1 4fbe
00000330: 1994 a33d 4dc0 503e 2dda 763e b533 613c
00000340: 5163 433e fe06 70bd 16c2 eb3d 7c58 15be
00000350: 5706 313e db75 453c a524 b1bc 39d1 033e
00000360: bb5b 66be bfa4 3b3e 9643 133e 2b6e 71be
00000370: 3270 0c3e 575b 11bc d15e 27bd edf8 203e
00000380: 63e4 9187 0b89 0080 6ae7 2380 3fad 1a80
00000390: daa6 0000 2c46 0e80 d089 0000 bc98 fab4
000003a0: df88 0080 a7fb e4b3 b68a 0cb4 e464 3b32
000003b0: c56e 05b4 d688 0000 8cf8 ae3c 635b 45bb
000003c0: 99aa 9d3c 58af a13c cd2a d339 cb13 a03c
000003d0: a3d8 1dbb a628 053e 20b8 f13d 2798 543d
000003e0: 54ce 103e bcbd 593c db5a f43d a802 a23c
000003f0: f01f 913c 8f21 eebb 4741 873c d8dc 873c
-0.038685843 0.17766733 0.2401977 -0.12251054 -0.0002547686 -0.1391143 0.20883949 -0.006677637
5.2842416e-23 -0.0061497847 -0.006047972 2.4341914e-06 -0.0062569007 -1.7138982e-12 -4.9313e-41 4.926e-41
4.9233e-41 4.9066e-41 5.1922e-41 -4.913e-41 -4.9295e-41 -0.012770294 -5.9954446e-12 -0.011501604
-0.011779394 -4.9138e-41 -0.010533277 -9.161593e-08 -1.3054054e-27 3.66657e-40 3.4125583e-30 3.5267234e-30
9.722257e-34 5.41889e-30 4.82656e-40 -9.109318e-28 -4.9347e-41 -1.8917003e-30 -7.438049e-30 -4.905e-41
-7.46467e-31 4.944e-41 0.19585027 -0.07966693 0.20725709 -0.15429313 -0.0089742085 -0.22672275
-0.11475379 -0.16653778 -0.100166254 -0.05699999 0.22534543 0.037926402 0.011516364 0.05660599
-2.1049307e-06 4.9477e-41 -5.9659646e-07 -5.8624505e-07 4.9233e-41 -6.7286857e-07 4.9132e-41 -0.040746402
0.11147315 0.21209635 -0.13498743 0.0036117616 0.06662483 -0.11250609 0.025926191 -0.0015040588
0.022444589 0.024468126 0.0005362732 0.021812052 0.00012940518 -0.0017599402 4.9078e-41 -0.0012810886
-0.001271728 6.4870354e-09 -0.0012797242 -1.5657072e-30 -6.427033e-13 4.0840745e-24 -3.0578286e-14 -2.2993561e-14
2.7713484e-15 -4.1141207e-14 -1.4105451e-31 0.17283088 -0.12372131 0.24842513 0.24082679 -0.007764568
0.058378827 -0.076752216 0.075136386 0.116813526 -0.12065731 0.1949827 0.013781398 0.16802818
-0.17102997 0.17835519 -0.06419671 0.20814593 0.21708825 0.023562657 0.15979534 -0.14236292
-0.23538919 0.039665774 0.03573769 0.18983147 0.038717322 0.13009855 0.18890636 0.11780612
-0.14436744 -0.10139271 0.22500098 -0.013742308 -0.0070232116 -0.114065506 0.28793615 -0.10288643
0.2785187 -0.010512718 0.014539398 0.14817011 -0.14724801 0.2564475 0.1062624 -0.1409977
-0.09744884 0.013219456 0.0055054193 0.12923624 -4.335715e-06 4.9258e-41 -2.532051e-06 -2.7521546e-06
1.3069667e-08 -2.4036083e-06 4.9099e-41 -0.00018605657 -0.08265928 -0.13015214 -0.05777429 0.006006826
0.18420415 -0.04371249 -9.51642e-15 4.9352e-41 -1.0520649e-16 -1.3411443e-16 -3.526446e-39 -1.7078836e-16
-4.9344e-41 0.0332893 -0.14443785 0.062362343 0.09612197 0.011341015 -0.17186044 0.1441965
4.9068e-41 -4.947e-41 4.9127e-41 4.9214e-41 -4.9963e-41 4.9068e-41 4.9372e-41 0.12766856
-0.11686141 -0.037063465 -0.038663104 -0.0065835086 -0.07282271 0.07056019 -0.05423575 0.057062954
0.050642036 0.014539159 -0.00014977234 -0.0113674775 -0.03473202 0.15663812 0.09874413 0.102826096
0.25018883 -0.050046373 -0.11340226 0.059784822 -0.011233985 -0.11628306 0.033229273 0.15740182
-0.036830485 0.045038953 -0.02552369 -0.20306806 0.07987232 0.20385857 0.24106665 0.013745238
0.19080855 -0.05860042 0.11511628 -0.14584535 0.17287575 0.012052025 -0.021623919 0.12872781
-0.2249593 0.18324564 0.1438125 -0.23577182 0.13714674 -0.008871875 -0.04086191 0.15719958
-2.1951409e-34 -4.9162e-41 -3.297258e-39 -2.449872e-39 5.9855e-41 -1.31087e-39 4.9438e-41 -4.6677258e-07
-4.91e-41 -1.0662853e-07 -1.3088979e-07 1.09077725e-08 -1.2426888e-07 4.9087e-41 0.02135875 -0.0030114285
0.019246386 0.01973693 0.00040276945 0.019540688 -0.0024085424 0.13003787 0.11802697 0.051902916
0.14141208 0.013289865 0.11931392 0.019776657 0.017715424 -0.007267184 0.016510619 0.016584799

conv2.bias f4 [32]
00000000: cb1a be3c 00d3 e7b9 db85 8ebc 255a 85bc
00000010: 453b 22bc 3fca 03bc 408d 0080 2a9b 8ebc
00000020: 5392 acbc df74 27bc c409 58bd 8f26 51bc
00000030: 4c2c 6a2f 1407 cb2c 1e8a 0080 8e0e 5fba
00000040: 0f85 f1b2 502a aabb 65a3 d2ba b189 0080
00000050: ba3a f3bc 95f3 ccbb a8c4 899b c3c2 3abc
00000060: c901 c8b8 c146 61ba 182a 9cbc 7241 4ebc
00000070: 765e 16b8 e3ab 9abc f3cc 2e3d bb3d b1b1
0.023206135 -0.0004421696 -0.017397812 -0.016278336 -0.009901826 -0.008043825 -5.0671e-41 -0.017407972
-0.021065867 -0.010220735 -0.05274369 -0.012765541 2.1297913e-10 5.770393e-12 -4.9547e-41 -0.0008508944
-2.81166e-08 -0.0051930323 -0.0016070424 -4.9394e-41 -0.029691089 -0.006254623 -2.2791835e-22 -0.011398974
-9.537076e-05 -0.0008593612 -0.01906304 -0.012588846 -3.585076e-05 -0.01888079 0.042675924 -5.158396e-09

conv2.lin.weight f4 [32, 64]
00000000: 678e 453a 5cd7 5e35 d48a 0000 0c89 0080
00000010: 49ff 0208 1903 0000 660c 7b3c dae4 7f3c
00000020: ee88 0080 4015 be3d 1eaa b732 8c23 3731
00000030: 9d9d 6a26 6333 13bd 2932 263e a107 fabd
00000040: d49d cdbc 075b df3b 564b 90bd 0c03 cc3d
00000050: ad0d b431 e337 da3d e7e2 3880 2c36 753d
00000060: d989 0000 214d d3bc e251 a43d 02c7 3e3d
00000070: d434 58be 9552 34be 771c 3c3e bccd 743b
00000080: d589 0000 884d a131 2e8a 0000 3284 2b3e
00000090: 5f89 0080 55aa fcbc 5c8a 0080 8e81 19be
000000a0: bcc3 2e3e 1b08 0e3e 6786 da33 6da4 8cbd
000000b0: bd8b 0000 d48d 0080 ca80 0080 fee4 acbd
000000c0: f398 0000 c98b 003a bcab d6bd 150c 1f3c
000000d0: e688 0000 78ba 02be d379 b6bd 681a 16bd
000000e0: 7e64 7cbd 9563 1921 2aa6 1cbe fc89 0080
000000f0: dfe6 20be 1588 3a3e 9011 b83d 0cc1 89bd
00000100: 88ea dcb6 587c e9b1 888f 0080 538b 0000
00000110: 042a 9584 b390 0080 46dd 1dbb f626 dcb5
00000120: 718d 0000 51a6 1fbc 3fed bcaa 7130 d9ad
00000130: 3516 fea2 9afd 91bd 54b0 54bd e62b 143d
00000140: 1e6c 423b e3e1 8aba f771 1c3d 0ef2 a73a
00000150: 6f71 60ae 02a8 aeb8 6573 1a85 8061 18bb
00000160: c48b 0000 6bc3 66b5 0754 81b3 c068 aabd
00000170: fbab e43b 4aae de3c 5c41 a5ba 98e8 bc39
00000180: 299a 0000 56c1 62ae 908d 0080 1de0 b8bc
00000190: d38a 0000 537e 56b9 a58a 0080 4ef6 633b
000001a0: 4a3b 223d 1ece 33ba fd68 83b0 ccc7 7e3c
000001b0: f582 0000 a18b 0000 798a 0000 b837 3d3d
000001c0: a089 0080 80bb c2bb a3f9 77ba 5607 83b6
000001d0: 1a8a 0000 a51a 37bd 5771 4fbc d922 a3bc
000001e0: 1d58 bab8 d973 ba9d 5aca f33b ea89 0000
000001f0: fe26 88b9 6391 0dbd 6516 ed3a 8534 28bc
00000200: 44e7 abbc ad59 c834 8f8a 0080 ec1f 033c
00000210: 92a6 8c83 1a95 0080 12ee b8bc 8b8f e1bd
00000220: 9c89 0080 3552 1fbe c605 34bc e571 62ac
00000230: cc14 eba1 f88b 21bd 3d41 113e 35d9 723e
00000240: b8ce 48be c32e 9a3d cfc5 80be 9bdb 9fbc
00000250: ec00 1bac 4614 2b3e de88 0080 648f 233e
00000260: 828a 0080 653a a2bc 3758 78bd 1a49 6bbe
00000270: 8ae0 573e cd98 7abe d63f 0fbe fbe6 2abe
00000280: 9389 0080 33c2 77ac cab6 2fbc 0a7a e33d
00000290: 2553 33bc 96fc 2bbe 2d8a 0080 21a1 81be
000002a0: 02ca dd3d c039 cdbd 12c0 5aaf abfa b93d
000002b0: 139f 0000 648a 0000 0a8a 0000 c952 523e
000002c0: 4189 0080 b304 8e3b faae 5c3e 8726 20bd
000002d0: e857 c2b3 814e fa3d bff7 16be 4906 1cbe
000002e0: 153b 0fbe f6a7 639b 38bb 83bd f783 d6b9
000002f0: d61e 233e b627 c23d 5702 6dbe 19f8 ecbd
00000300: 4e48 bbbc 706d 2cbb 128a 0000 2755 003c
00000310: 998a 0080 be88 0000 17a0 d23d 6640 8c3d
00000320: ae92 6332 5077 4b3e 49ac 9fbd 8e77 34b5
00000330: 538c 0000 8017 973d 8a3e 57be 8704 083e
00000340: 56f1 a13d 08e3 3abe dbaf 41be 90c2 bcbd
00000350: 07ae 0000 7bdd 113e e488 0000 fbe1 d23d
00000360: 9a8a 0000 43f3 703c 5fd2 1abb af06 a43b
00000370: d9bd c8bc d931 a4bd dc31 10bd a112 b13d
00000380: 948a 0080 148a 0000 c43d a0bd 4fb7 3fbe
00000390: e617 80bd 3573 29bb 0189 0080 fb6f 8abd
000003a0: 7efa 4c3e 95ef 123e e72f 80b5 07bb 683e
000003b0: ea89 0000 1e8a 0000 8e89 0080 47ac 00be
000003c0: caaa 0080 7163 433e 850a 7ebe 4356 2b3e
000003d0: cae2 c73a a2d2 b63d b013 423e 0adb 82be
000003e0: 4e3c 323e 0b89 0000 0e50 1e3e 3a81 c4bc
000003f0: d72f 6d3e df23 3a3e a77d 53be 8ceb 90be
0.0007536173 8.3014834e-07 4.9802e-41 -4.9163e-41 3.942054e-34 1.111e-42 0.01532278 0.015618527
-4.9121e-41 0.09281397 2.1381364e-08 2.665021e-09 8.1398665e-16 -0.035937678 0.16230072 -0.12208486
-0.025099672 0.006816271 -0.07045619 0.09961519 5.2402442e-09 0.10655191 -5.224185e-39 0.059866115
4.945e-41 -0.025793614 0.080234304 0.046576507 -0.21113902 -0.17609628 0.18370233 0.0037354073
4.9445e-41 4.694531e-09 4.957e-41 0.16749647 -4.928e-41 -0.03084294 -4.9634e-41 -0.14990827
0.17066854 0.1387028 1.0175864e-07 -0.06867299 5.0129e-41 -5.0878e-41 -4.6201e-41 -0.08442114
5.4868e-41 0.0004903642 -0.104819745 0.00970747 4.911e-41 -0.12766445 -0.08909955 -0.036646277
-0.061619274 5.197021e-19 -0.15297762 -4.95e-41 -0.1571307 0.18215974 0.08987725 -0.06726274
-6.583814e-06 -6.7953287e-09 -5.149e-41 4.998e-41 -3.5068317e-36 -5.1908e-41 -0.0024088188 -1.6402616e-06
5.074e-41 -0.009744243 -3.356013e-13 -2.4691556e-11 -6.887035e-18 -0.07128449 -0.051925972 0.036174677
0.0029666494 -0.0010595884 0.038194623 0.0012813227 -5.1032453e-11 -8.3282604e-05 -7.26224e-36 -0.0023251474
5.0138e-41 -8.596605e-07 -6.022315e-08 -0.08320761 0.0069785095 0.027182717 -0.001260798 0.0003603145
5.5302e-41 -5.1558167e-11 -5.0783e-41 -0.022567803 4.9801e-41 -0.0002045569 -4.9736e-41 0.003478426
0.039607324 -0.0006859022 -9.561344e-10 0.015550565 4.6979e-41 5.009e-41 4.9675e-41 0.046195716
-4.937e-41 -0.005942762 -0.0009459501 -3.9049582e-06 4.9542e-41 -0.044703145 -0.0126613 -0.019914078
-8.8855835e-05 -4.9353574e-21 0.0074398937 4.9474e-41 -0.00025968993 -0.03456248 0.0018088339 -0.010266428
-0.0209843 3.731815e-07 -4.9705e-41 0.008003216 -8.266703e-37 -5.3488e-41 -0.022574458 -0.11013707
-4.9365e-41 -0.15558703 -0.010987705 -3.2179756e-12 -1.5929724e-18 -0.039440125 0.14185043 0.2371567
-0.19610107 0.0752845 -0.25150916 -0.019513896 -2.2027337e-12 0.16706952 -4.9099e-41 0.15972668
-4.9687e-41 -0.019803235 -0.060631003 -0.22977105 0.21081749 -0.24472351 -0.13989195 -0.16689675
-4.9352e-41 -3.5208613e-12 -0.010724733 0.111072615 -0.010945116 -0.16795573 -4.9568e-41 -0.25318244
0.108295456 -0.100207806 -1.9895222e-10 0.09081014 5.7065e-41 4.9645e-41 4.9519e-41 0.20539393
-4.9237e-41 0.0043340563 0.21551123 -0.039099243 -9.049819e-08 0.12222005 -0.14742945 -0.15236773
-0.13987382 -1.8831271e-22 -0.064321935 -0.00040915582 0.15929732 0.094802305 -0.23145424 -0.115707584
-0.022861626 -0.0026310347 4.953e-41 0.007832802 -4.972e-41 4.9054e-41 0.10284441 0.068482205
1.324649e-08 0.19869733 -0.07796533 -6.72292e-07 5.0339e-41 0.07377529 -0.2101995 0.13282977
0.07907359 -0.18250668 -0.1891474 -0.09216797 6.2429e-41 0.14244644 4.9107e-41 0.102970086
4.9721e-41 0.014706436 -0.0023623926 0.0050056796 -0.024504589 -0.0801732 -0.0352038 0.08646131
-4.9712e-41 4.9533e-41 -0.07824281 -0.1872227 -0.06254558 -0.0025856022 -4.9148e-41 -0.0675964
0.2001743 0.14349206 -9.550685e-07 0.22727595 4.9474e-41 4.9547e-41 -4.9345e-41 -0.12565719
-6.1268e-41 0.19080903 -0.248087 0.16732125 0.0015250084 0.08926894 0.18952823 -0.2555774
0.17405817 4.9162e-41 0.15460226 -0.023987401 0.2316278 0.18177746 -0.20653401 -0.28304708

conv3.bias f4 [16]
00000000: 63d2 853d 6a8f 36b7 19a6 ddb0 6db3 b43c
00000010: a934 8abd 8cef 8291 47a8 65bc 88da 7abd
00000020: 474e c3b0 08f7 87bd 66a4 6cbd 0e9d f93d
00000030: a92a 2c3d 7352 253d ec3b e13c c2ce 823b
0.06534269 -1.08814365e-05 -1.6127074e-09 0.022058213 -0.067483254 -2.0658016e-28 -0.014017171 -0.061243564
-1.4210365e-09 -0.06638914 -0.05777397 0.12188159 0.04203287 0.040361833 0.027494393 0.0039919326

conv3.lin.weight f4 [16, 32]
00000000: 5893 4b3e 9c87 85bc bf5e aabd 44ad a33d
00000010: 2146 313e 54c0 e63d 2589 0000 c458 543d
00000020: fb8b f0bc 5439 06be 9f86 5c3e c0a3 8d3e
00000030: bdb8 9931 fed7 e52e 118a 0000 5d86 5fbc
00000040: 2d3b 953c 7dd0 93bd 3c92 863e 96c6 dab5
00000050: c124 523e 1b24 7bbe 344c b530 09ea 8fbe
00000060: b2f1 7a3c 7e66 293e 0e47 8d3d fdf2 00be
00000070: d6c4 68ba 4f09 45bc 264e 753d f488 363c
00000080: 6989 0000 cd88 0000 fd78 33bc be02 9ebb
00000090: b5a9 0080 2d8a 0000 f188 0080 0cb2 acbb
000000a0: 9814 011d 258f 0000 f19b 4fbc 2da9 9539
000000b0: ae99 0000 7c8c 0000 0189 0080 7c89 0000
000000c0: 2f8a 0080 cf8b 0080 5b8c 0000 cc8a 0000
000000d0: 2576 bf0b e29a 0080 848c 0080 9168 2b00
000000e0: e288 0080 2b77 6bba b8a4 d2bb a792 0080
000000f0: e889 0000 6650 43bb 1589 0000 249d 0000
00000100: 408c 0080 7c89 0080 6b36 76b6 2d1a 0ab8
00000110: 3791 0000 d488 0000 7b89 0080 87d0 8db3
00000120: 5224 15b2 6a8b 0000 0c3d 55b6 9e4d a1b4
00000130: e889 0000 7f89 0080 1e89 0080 558e 0080
00000140: dd89 0000 4389 0080 1189 0080 e188 0000
00000150: 2a79 26ab 0489 0000 3889 0080 3193 0080
00000160: 6e8b 0080 2189 0080 5817 0ab5 a2ab 0080
00000170: 5b8a 0080 f5e8 51b7 5497 0080 4789 0080
00000180: ade7 afb8 231a 82b4 bc73 39bd 28c9 86bd
00000190: a2ea 47b4 5c2b f4b3 0d89 0000 6437 11bd
000001a0: a23f 31bc e901 70b6 5840 6cbd 60b1 86bc
000001b0: 817e 8aae e29b bfab e69b 0000 fa60 6cb4
000001c0: 9589 0000 7e92 28b5 08d8 19b7 6d8a 0000
000001d0: c16c 02bc 17db edb4 5389 0080 6bd8 59b6
000001e0: a889 0080 4fa4 4c3c a8f8 eb3a b68c 0080
000001f0: f2bd d1b5 862b 59bd 71ab d6b8 d5af ab29
00000200: b145 3dbc 1437 2db4 b27a 053e d998 273e
00000210: 9c3f afbb e12e 1f3b e093 0000 2ee4 06be
00000220: 6d8c e43d 8234 50bd 421a 613d 82dd 4bbe
00000230: dc89 0000 8189 0080 9d89 0080 8176 16b8
00000240: dd4d 85bb f232 103e f572 dcbd 74b1 7c1d
00000250: 3476 583e 1bb6 1d3e b494 0080 f590 3dbd
00000260: 7c9f 053c da7e 3e3e ea74 6ebe e70e 16bd
00000270: 54f7 1938 4ad5 743e 2f08 323d ace7 62bb
00000280: 11a7 0000 7c8f 0080 1b1f f6b2 8b72 21b5
00000290: da8d 0000 bc88 0000 ec88 0080 309e bcaf
000002a0: 3db0 9db0 d289 0000 bae2 62b4 9a53 7eb5
000002b0: 3ca0 0000 e488 0080 0689 0000 a08a 0000
000002c0: 8989 0000 4289 0080 be8b 0000 d68a 0000
000002d0: 0844 2d9f 35a5 0080 9689 0080 cf89 0080
000002e0: 688a 0000 0d8a 0080 6a59 65b5 0b8a 0000
000002f0: ca89 0080 bdd2 d6b3 d589 0080 2ba4 0080
00000300: 8f6f 073d 378a 0000 9f10 7bbe 9487 943c
00000310: 99af b3bd ac78 3b27 cc89 0080 815a b0bd
00000320: 3358 35be e44f 3a3e eb51 943e 7645 563d
00000330: 758a 0080 bd8e 0080 3189 0080 1989 0080
00000340: 2a8b 0080 e810 8b3a 13ed e9bd ec89 0000
00000350: b4e0 173e 91a3 c73d e188 0080 0d0c 6fbe
00000360: 5f89 0080 b25a dfbd b16c 9fbe 3570 81bc
00000370: 458d 0080 1465 8bbd fb88 0080 f888 0080
00000380: 6dd5 44be 2b3e 873b da8a 82be 7f38 0e3e
00000390: c318 843e 4be2 4f3d 368d 0000 8e54 773e
000003a0: d152 2e3e e046 6f3e 5154 2d3e 1424 4c3d
000003b0: 4889 0080 e089 0000 bdaf 0000 9701 e3bc
000003c0: 62cc 86bc a118 babd 79b9 89be c13a e79c
000003d0: 215b a83d 6d5d cbbd cace 8ba6 3fde 7b3e
000003e0: 9d0e 6d3c 289e 8a3e ccb5 4f3e 1f00 9dbc
000003f0: d79a 6dba 34ca cebd 2fa5 8dbd 6f0f 0ebc
0.19880426 -0.016300015 -0.08318853 0.07992032 0.17311908 0.112671524 4.9198e-41 0.051842466
-0.029363623 -0.13107806 0.21535729 0.27663994 4.4738884e-09 1.0452082e-10 4.9529e-41 -0.013642875
0.018216694 -0.072175 0.26283443 -1.6300062e-06 0.20521833 -0.24525492 1.3191142e-09 -0.28108242
0.015316414 0.16543004 0.06898318 -0.12592693 -0.00088794285 -0.012026145 0.05988898 0.011141051
4.9293e-41 4.9075e-41 -0.010954139 -0.0048221042 -6.088e-41 4.9568e-41 -4.9125e-41 -0.0052702483
1.7083655e-21 5.135e-41 -0.012671457 0.0002854554 5.513e-41 5.0396e-41 -4.9148e-41 4.932e-41
-4.9571e-41 -5.0154e-41 5.035e-41 4.9791e-41 7.374829e-32 -5.5561e-41 -5.0408e-41 3.986438e-39
-4.9104e-41 -0.0008982296 -0.0064283274 -5.2609e-41 4.9471e-41 -0.002980256 4.9176e-41 5.6371e-41
-5.0312e-41 -4.932e-41 -3.6688532e-06 -3.2926142e-05 5.2093e-41 4.9085e-41 -4.9319e-41 -6.603755e-08
-8.6812e-09 5.0012e-41 -3.1775007e-06 -3.004506e-07 4.9471e-41 -4.9324e-41 -4.9188e-41 -5.1059e-41
4.9456e-41 -4.924e-41 -4.917e-41 4.9103e-41 -5.9143196e-13 4.9152e-41 -4.9225e-41 -5.2802e-41
-5.0018e-41 -4.9193e-41 -5.1442976e-07 -6.157e-41 -4.9633e-41 -1.251161e-05 -5.4286e-41 -4.9246e-41
-8.387803e-05 -2.4233404e-07 -0.04527639 -0.06581336 -1.8618678e-07 -1.13700224e-07 4.9165e-41 -0.035453215
-0.010818394 -3.5763899e-06 -0.05767855 -0.016442 -6.297985e-11 -1.3614632e-12 5.5926e-41 -2.2014493e-07
4.9355e-41 -6.279805e-07 -9.169809e-06 4.9658e-41 -0.007960499 -4.43041e-07 -4.9263e-41 -3.2461492e-06
-4.9382e-41 0.012490346 0.0018003182 -5.0478e-41 -1.5626995e-06 -0.053020023 -0.000102362486 7.6244275e-14
-0.01155226 -1.6131918e-07 0.13035086 0.163669 -0.005348159 0.0024289417 5.3048e-41 -0.13172981
0.111595966 -0.050831325 0.054956682 -0.19908717 4.9455e-41 -4.9327e-41 -4.9366e-41 -3.5873152e-05
-0.00406812 0.14081934 -0.10764114 3.3443663e-21 0.21138841 0.15401499 -5.3345e-41 -0.04628082
0.0081557 0.18603078 -0.23286787 -0.036635306 3.6708385e-05 0.23909488 0.043464836 -0.003462295
5.9932e-41 -5.1472e-41 -2.8652314e-08 -6.0143856e-07 5.0887e-41 4.9051e-41 -4.9118e-41 -3.43094e-10
-1.1473343e-09 4.944e-41 -2.1130373e-07 -9.474403e-07 5.7481e-41 -4.9107e-41 4.9155e-41 4.9729e-41
4.9338e-41 -4.9239e-41 5.013e-41 4.9805e-41 -3.669045e-20 -5.9265e-41 -4.9357e-41 -4.9436e-41
4.9651e-41 -4.9523e-41 -8.543926e-07 4.952e-41 -4.943e-41 -1.00034846e-07 -4.9445e-41 -5.8892e-41
0.033065375 4.9582e-41 -0.24518059 0.018131055 -0.08773727 2.601688e-15 -4.9432e-41 -0.08611012
-0.17709427 0.18194538 0.28968748 0.052312337 -4.9669e-41 -5.1205e-41 -4.9215e-41 -4.9181e-41
-4.9923e-41 0.0010609897 -0.114221714 4.9477e-41 0.14831811 0.09747995 -4.9103e-41 -0.23344441
-4.928e-41 -0.10905971 -0.31137612 -0.015800575 -5.0678e-41 -0.068063885 -4.914e-41 -4.9135e-41
-0.1922204 0.004127284 -0.2549656 0.13888739 0.25800142 0.05075292 5.0657e-41 0.24153349
0.1702378 0.2336688 0.16926695 0.049839094 -4.9247e-41 4.946e-41 6.3043e-41 -0.027710719
-0.01645488 -0.09086729 -0.26899317 -1.5301485e-21 0.082205065 -0.09929929 -9.701113e-16 0.24596499
0.014468816 0.2707379 0.20284194 -0.019165097 -0.00090639055 -0.10097161 -0.06916272 -0.008670672

classifier.weight f4 [2, 16]
00000000: 59ac 4b3e 608a b1bb f011 84ba 2582 18bb
00000010: d79a d6bd c4a0 a58e b0de 0c3e 9750 11be
00000020: 79ef 4f32 dfc9 a73c c1e8 9cbd e93a 2e3d
00000030: e1e5 9bbc 11ea 973c df11 cc3d bdb9 bab9
00000040: 5256 b3bd f30b ab3b 194e 803a bca3 b93a
00000050: 656f 2bbd 9a49 930e 149b 0abe 5031 363d
00000060: 94a4 1532 695f bfbd dc7b f03c 5991 38bd
00000070: be49 5ebd ec78 4dbd 4a65 823d 2f00 353a
0.19889964 -0.005418107 -0.0010076147 -0.0023270932 -0.10478752 -4.0830452e-30 0.13756824 -0.14190899
1.2103436e-08 0.020482002 -0.07661582 0.04253665 -0.019030513 0.018544229 0.09964346 -0.0003561507
-0.08756699 0.0052199303 0.00097889 0.0014163177 -0.04185428 3.6309174e-30 -0.1353572 0.04448062
8.710362e-09 -0.0934437 0.029355936 -0.04506049 -0.054269545 -0.05016415 0.063669756 0.00069046294

classifier.bias f4 [2]
00000000: 4f95 883d 0f48 7bbe
0.06669103 -0.24539207
