backend/mlruns/1/models/m-51e23c0bd305488988be9fbc402ff8d0/artifacts/data/model.pth (torch, 213254 bytes, 36 tensors)

weight f4 [32, 7]
-0.20703612 -0.3131962 0.12432408 0.31223658 -0.26209757 0.27692807 0.1666291 -0.3253415
0.27915627 -0.05746599 0.18824708 -0.033614546 0.08931652 -0.17400655 0.19618903 0.092236154
-0.33354637 0.07351935 -0.36941063 -0.18259141 0.28823772 -0.36735502 -0.21871103 -0.15466823
0.33364165 0.052481573 -0.24208789 -0.04694737 -0.17586897 -0.056536783 0.06678407 0.2312035
-0.000607592 -0.2417911 0.11352728 -0.1354725 0.203253 -0.37051827 -0.31108257 -0.3637794
0.09978188 -0.14238085 -0.024826474 -0.24276198 0.25274992 -0.32520092 -0.08019164 0.22803469
0.20812924 0.17414942 0.15619399 -0.32439467 -0.3514507 0.06625181 -0.25082442 0.30887127
0.04096409 0.2885436 0.08918279 0.23619021 0.08740777 -0.0047529144 0.01658949 0.19968054
-0.051914487 0.19503526 0.17343216 -0.048513323 -0.15329169 -0.1547718 0.29876006 -0.07620235
0.13254723 0.31403145 -0.09835524 0.23473546 -0.22929683 -0.037869357 0.22859259 -0.15356645
-0.227016 -0.34612384 0.045391377 0.3588047 -0.22114109 -0.043908555 0.095981866 0.3059589
0.19785483 -0.27312982 0.01807799 -0.10171405 -0.05982787 -0.0045706597 -0.18110998 0.07331957
0.34561738 0.18131801 -0.1916565 0.026261356 -0.04212917 0.2722831 0.3649286 0.09494745
-0.10418731 -0.12295274 -0.25657168 -0.026668623 0.37174055 -0.18941118 -0.25301972 -0.024491476
-0.17281173 -0.22838582 -0.083023734 0.29367107 0.11647982 -0.29307276 0.12610784 -0.01054065
0.071288675 0.29812378 -0.29443672 0.08836194 -0.15758625 -0.15366364 0.32778826 -0.14285147
-0.0021678666 -0.019480791 -0.14670353 0.0675499 0.32957286 0.13195871 -0.3376917 0.013904327
0.26898256 -0.16975367 -0.0035325491 0.32579747 0.083795875 0.08198883 0.35548964 -0.16784151
-0.15653862 -0.040201277 -0.2262341 0.25980145 0.29777652 -0.26651472 0.07151878 0.008188051
0.21203311 -0.08927867 -0.2279877 -0.12700844 0.18507427 0.26872104 -0.20519657 0.28468868
0.12074657 0.2249664 0.3074034 -0.28817302 0.2103055 0.1791701 -0.35490188 0.067124784
-0.13099475 0.19064984 -0.056181643 0.14330898 -0.3098574 0.060238473 -0.16238214 0.2030768
-0.09963787 -0.28997344 0.3047364 0.11360916 -0.28102776 0.28214017 0.26924953 0.26066688
0.37605578 0.2721387 0.34886417 -0.10804932 -0.2148484 0.30258355 0.02547268 0.27265948
0.19997318 -0.22522536 -0.20825098 -0.108565085 0.27650318 -0.039183665 -0.2960926 0.076112956
0.35956153 -0.21657363 -0.1207353 0.2411408 -0.24894676 0.08272753 0.2945741 0.28175223
-0.28365156 0.34938794 -0.31547406 0.15530619 -0.14919648 0.26356924 0.265251 0.08397556
-0.26705864 -0.02630979 0.12456906 0.120793834 0.25649056 -0.12053183 0.049985107 -0.02234339
00000000: 4701 54be 415b a0be a09d fe3d 79dd 9f3e
00000010: a731 86be 84c9 8d3e d2a0 2a3e 2993 a6be
00000020: 92ed 8e3e 7561 6bbd d8c3 403e 68af 09bd
00000030: 94eb b63d c62e 32be c7e5 483e 4fe6 bc3d
00000040: 97c6 aabe 5091 963d 6423 bdbe 3ef9 3abe
00000050: e593 933e f515 bcbe c9f5 5fbe 5961 1ebe
00000060: 14d3 aa3e ebf6 563d e3e5 77be e34b 40bd
00000070: ff16 34be 1d93 67bd 16c6 883d 9cc0 6c3e
00000080: cf46 1fba 1698 77be fe80 e83d 4eb9 0abe
00000090: 8e21 503e 92b4 bdbe 3746 9fbe 4b41 babe
000000a0: 715a cc3d 49cc 11be e460 cbbc 9996 78be
000000b0: 7068 813e bc80 a6be 843b a4bd ed81 693e
000000c0: d51f 553e 3a54 323e 51f1 1f3e 0f17 a6be
000000d0: 59f1 b3be 07af 873d 0f6c 80be 6024 9e3e
000000e0: f6c9 273d fdbb 933e 77a5 b63d d9db 713e
000000f0: d802 b33d 56be 9bbb afe6 873c 0e79 4c3e
00000100: 49a4 54bd 53b7 473e 3398 313e e8b5 46bd
00000110: 7ff8 1cbe 807c 1ebe 14f7 983e fa0f 9cbd
00000120: 76ba 073e bbc8 a03e 796e c9bd 7e5e 703e
00000130: cacc 6abe e61c 1bbd 2d14 6a3e 8640 1dbe
00000140: e276 68be 2537 b1be 4fec 393d 40b5 b73e
00000150: cf72 62be 75d9 33bd 2492 c43d a5a6 9c3e
00000160: 759a 4a3e acd7 8bbe 4b18 943c 754f d0bd
00000170: 120e 75bd 79c5 95bb e574 39be 9228 963d
00000180: c3f4 b03e 6eab 393e 9a41 44be 0e22 d73c
00000190: a38f 2cbd b168 8b3e ecd7 ba3e cf73 c23d
000001a0: 2860 d5bd a5ce fbbd 5d5d 83be 2878 dabc
000001b0: c754 be3e 01f5 41be cd8b 81be 59a2 c8bc
000001c0: 8ff5 30be f9dd 69be 5908 aabd 0e5c 963e
000001d0: f98c ee3d a20d 96be 6a22 013e b1b2 2cbc
000001e0: ccff 913d aea3 983e 69c0 96be 1bf7 b43d
000001f0: 4a5e 21be 005a 1dbe ddd3 a73e a847 12be
00000200: c412 0ebb 2e96 9fbc 7339 16be 9a57 8a3d
00000210: c6bd a83e 2f20 073e ede5 acbe f9ce 633c
00000220: 15b8 893e e8d3 2dbe 5782 67bb edce a63e
00000230: 2c9d ab3d c2e9 a73d bd02 b63e a5de 2bbe
00000240: a94b 20be 18aa 24bd e9a9 67be b204 853e
00000250: 2a76 983e 9e74 88be 7078 923d 2d27 063c
00000260: 351f 593e bcd7 b6bd 9c75 69be 800e 02be
00000270: 1c84 3d3e ce95 893e 0d1f 52be b7c2 913e
00000280: fa49 f73d 985d 663e fa63 9d3e 6a8b 93be
00000290: 535a 573e 5e78 373e b3b5 b5be b878 893d
000002a0: 7d23 06be b639 433e b91e 66bd 97bf 123e
000002b0: a1a5 9ebe 9ebc 763d 8147 26be 5df3 4f3e
000002c0: f10e ccbd 6677 94be 6906 9c3e ebab e83d
000002d0: dfe2 8fbe ad74 903e 13db 893e 2176 853e
000002e0: 628a c03e c455 8b3e 539e b23e f648 ddbd
000002f0: 3801 5cbe 3bec 9a3e 15ac d03c 069a 8b3e
00000300: c5c5 4c3e 7aa1 66be bf3f 55be 5f57 debd
00000310: d391 8d3e 0d7f 20bd 7399 97be 1ce1 9b3d
00000320: 7318 b83e 7ac5 5dbe 1244 f7bd 9ded 763e
00000330: e6eb 7ebe 0d6d a93d 6bd2 963e d441 903e
00000340: c73a 91be fae2 b23e d185 a1be 9608 1f3e
00000350: f6c6 18be 8cf2 863e fbce 873e 61fb ab3d
00000360: e9bb 88be a187 d7bc 101e ff3d c262 f73d
00000370: bb52 833e 64d9 f6bd 2fbd 4c3d 7c09 b7bc

bias f4 [32]
-0.0436329 -0.26750433 0.3372581 0.18605746 -0.043414373 -0.2369997 0.36513394 0.1425217
-0.0051012943 0.34397042 0.20634936 0.13873751 0.037495114 -0.03137914 -0.16535869 -0.041222174
0.21779615 -0.24857774 -0.14975224 0.15765244 -0.108131364 0.020929866 0.23832028 -0.32681113
0.34530598 -0.3205025 0.15821847 0.3757465 0.3258241 -0.2608044 0.17155775 -0.31753907
00000000: 69b8 32bd 54f6 88be 18ad ac3e d985 3e3e
00000010: 45d3 31bd 0db0 72be d6f2 ba3e 35f1 113e
00000020: c228 a7bb e41c b03e 3f4d 533e 3511 0e3e
00000030: 7a94 193d 6a87 00bd ca53 29be 95d8 28bd
00000040: f405 5f3e 2a8b 7ebe a758 19be a46f 213e
00000050: fa73 ddbd 1c75 ab3c 3b0a 743e ca53 a7be
00000060: f2cb b03e e718 a4be 0604 223e d861 c03e
00000070: 6bd2 a63e 2888 85be d6ac 2f3e 7b94 a2be

weight f4 [32]
1.0 1.0 1.0 1.0 1.0 1.0 1.0 1.0
1.0 1.0 1.0 1.0 1.0 1.0 1.0 1.0
1.0 1.0 1.0 1.0 1.0 1.0 1.0 1.0
1.0 1.0 1.0 1.0 1.0 1.0 1.0 1.0
00000000: 0000 803f 0000 803f 0000 803f 0000 803f
00000010: 0000 803f 0000 803f 0000 803f 0000 803f
00000020: 0000 803f 0000 803f 0000 803f 0000 803f
00000030: 0000 803f 0000 803f 0000 803f 0000 803f
00000040: 0000 803f 0000 803f 0000 803f 0000 803f
00000050: 0000 803f 0000 803f 0000 803f 0000 803f
00000060: 0000 803f 0000 803f 0000 803f 0000 803f
00000070: 0000 803f 0000 803f 0000 803f 0000 803f

bias f4 [32]
0.0 0.0 0.0 0.0 0.0 0.0 0.0 0.0
0.0 0.0 0.0 0.0 0.0 0.0 0.0 0.0
0.0 0.0 0.0 0.0 0.0 0.0 0.0 0.0
0.0 0.0 0.0 0.0 0.0 0.0 0.0 0.0
00000000: 0000 0000 0000 0000 0000 0000 0000 0000
00000010: 0000 0000 0000 0000 0000 0000 0000 0000
00000020: 0000 0000 0000 0000 0000 0000 0000 0000
00000030: 0000 0000 0000 0000 0000 0000 0000 0000
00000040: 0000 0000 0000 0000 0000 0000 0000 0000
00000050: 0000 0000 0000 0000 0000 0000 0000 0000
00000060: 0000 0000 0000 0000 0000 0000 0000 0000
00000070: 0000 0000 0000 0000 0000 0000 0000 0000

weight f4 [32, 3]
-0.47151354 -0.07481967 -0.54916173 0.16524263 -0.058988627 0.3642145 0.00050545455 -0.029332608
-0.031755887 0.42675543 0.213118 -0.3127845 -0.4495432 -0.057549693 -0.39510828 0.14781263
0.47080973 -0.45283058 -0.04514052 -0.020456526 -0.2698296 0.1827517 -0.21534471 0.3112237
-0.07534391 -0.57284796 0.01068406 -0.2711037 -0.025441488 0.16509885 0.4675375 0.09761523
0.41136727 -0.5748789 0.23127478 -0.059426907 0.062003806 -0.45474675 -0.031756025 0.46850827
0.55331933 0.48859894 0.30477652 0.01094016 0.43912426 0.5268348 -0.13505238 -0.3234548
0.36436144 0.1341509 -0.2723382 0.07095828 -0.39173272 0.5080727 -0.34625635 0.01373654
0.039766487 0.3833091 -0.33864817 -0.3058054 -0.5546467 -0.2606277 0.4120379 0.4627937
-0.3649899 0.08979878 -0.394878 -0.045453332 -0.17797597 -0.039171148 0.13275154 -0.17477696
0.4866986 0.5520892 0.1139233 0.067424156 -0.13083297 0.111248665 0.22849156 -0.0799325
0.07387008 -0.37915543 0.28396988 0.053649418 -0.5436695 0.31673792 -0.03783414 0.16596997
0.38256985 0.5105117 -0.46639436 0.075276874 0.14821602 -0.51617765 0.42314374 -0.040939
00000000: 396a f1be 0e3b 99bd dd95 0cbf 5d35 293e
00000010: 0f9e 71bd 537a ba3e 7b80 043a f04a f0bc
00000020: 7612 02bd b07f da3e 9b3b 5a3e 4a25 a0be
00000030: 872a e6be 3ab9 6bbd a24b cabe 325c 173e
00000040: f90d f13e 69d9 e7be 44e5 38bd 7294 a7bc
00000050: 1b27 8abe 4323 3b3e 5383 5cbe b658 9f3e
00000060: e84d 9abd 2aa6 12bf 320c 2f3c 1bce 8abe
00000070: ab6a d0bc ac0f 293e 1361 ef3e 7eea c73d
00000080: bb9e d23e 432b 13bf 4cd3 6c3e a169 73bd
00000090: b4f7 7d3d 91d4 e8be 9b12 02bd 51e0 ef3e
000000a0: 56a6 0d3f a429 fa3e ab0b 9c3e 5b3e 333c
000000b0: e5d4 e03e a5de 063f 2c4b 0abe de9b a5be
000000c0: 958d ba3e db5e 093e ea6f 8bbe 9352 913d
000000d0: 3191 c8be 0d11 023f 8348 b1be 3a0f 613c
000000e0: 2fe2 223d 1741 c43e 4b63 adbe 8692 9cbe
000000f0: 53fd 0dbf fe70 85be a2f6 d23e 4cf3 ec3e
00000100: f5df babe 6ce8 b73d 732d cabe 462d 3abd
00000110: 553f 36be ed71 20bd 05f0 073e bbf8 32be
00000120: 8f30 f93e b855 0d3f 9e50 e93d ad15 8a3d
00000130: 14f9 05be 57d6 e33d b1f9 693e a7b3 a3bd
00000140: 3249 973d a920 c2be 8064 913e 7ebf 5b3d
00000150: ed2d 0bbf 792b a23e f9f7 1abd 08f4 293e
00000160: 32e0 c33e e5b0 023f 3ecb eebe c32a 9a3d
00000170: f1c5 173e 3824 04bf 4ca6 d83e a7af 27bd

bias f4 [32]
-0.50640285 0.24282026 -0.24970193 0.24890451 -0.30623677 -0.5396631 0.1282598 -0.52236134
0.34316772 0.5738629 0.046920486 -0.2848419 0.3805616 0.1144271 -0.077111624 -0.36052668
0.01843987 0.04164749 -0.00027846804 0.24551389 -0.3653034 0.49078718 -0.18094744 -0.0067755277
0.026136283 -0.102986164 -0.32002252 -0.20754713 0.2690831 0.45789367 0.1833012 0.5241791
00000000: 9ea3 01bf e0a5 783e ddb1 7fbe d3e0 7e3e
00000010: 11cb 9cbe 5c27 0abf 8956 033e 79b9 05bf
00000020: aeb3 af3e aee8 123f b22f 403d ccd6 91be
00000030: f8d8 c23e c158 ea3d b3ec 9dbd f496 b8be
00000040: 360f 973c 8f96 2a3d 59ff 91b9 fe67 7b3e
00000050: 0c09 bbbe 7548 fb3e 494a 39be 3f05 debb
00000060: c21b d63c 69ea d2bd fed9 a3be 3c87 54be
00000070: 43c5 893e 0a71 ea3e 4fb3 3b3e 9a30 063f

weight f4 [32, 96]
0.050132282 0.05910241 0.08429274 -0.06070487 -0.059416067 -0.077191286 -0.023266496 0.04781686
0.008045153 -0.072954714 -0.061459303 0.0050991448 -0.05340808 0.07362789 0.027201515 0.10130145
-0.06882683 -0.06649883 -0.07319272 -0.08858948 0.08634977 0.082126275 -0.012202944 0.0101472745
-0.03405855 -0.06832315 -0.044749286 -0.06428219 0.0017647624 0.07337477 -0.023119705 0.01754372
0.014700108 0.08309024 0.012649804 -0.037781633 -0.06584716 -0.017109416 -0.07531096 -0.0883723
-0.042866103 0.07860511 0.03605729 -0.0036012356 0.051475916 -0.027981877 -0.09932435 -0.012553114
-0.05075309 0.061672512 -0.087038465 -0.08146467 0.08142911 -0.040880285 -0.00023962409 0.06586946
0.08024979 -0.081990495 0.08897217 -0.012860167 -0.008746541 0.023412157 -0.011946262 0.09529227
-0.055455633 0.048870526 -0.09623232 0.03439346 0.030739823 0.0025584602 -0.09150359 0.048307184
-0.09852449 -0.011892205 0.046476223 0.016611809 -0.03819979 0.045837674 0.056626208 0.08415297
0.027906675 0.08190915 0.013029528 0.053083897 0.06713363 0.08471463 -0.024015274 0.0017223856
0.084616944 0.0987118 0.007241916 0.09786952 0.03880808 0.06441518 0.028302494 0.036015984
0.08283216 -0.049539614 0.03066692 0.065467685 0.06004873 -0.058295924 -0.06477494 0.06960344
0.03080629 -0.09231739 0.08982218 0.04387373 0.08780973 -0.01791589 0.07895445 -0.003697572
0.006982302 -0.016534038 0.010438169 0.06269341 -0.09013804 0.07567652 -0.07980995 0.048866782
0.050342023 0.051134102 -0.036882374 0.01446748 -0.045662984 -0.10031602 -0.057924192 -0.039515905
-0.044465132 0.012423636 -0.07156271 -0.09329842 0.084895805 -0.06316068 0.05769918 0.02233293
0.049428325 -0.0693356 0.0140637625 -0.04846254 -0.006149366 0.008479262 -0.082417876 -0.04105249
0.065594636 0.07292464 0.096589476 0.015877314 -0.053055294 -0.033163756 0.008795694 0.048589222
-0.08336356 -0.07417323 0.054610714 0.0075078323 -0.01229653 -0.053770855 0.09458306 -0.06915186
-0.062756464 0.004661093 -0.078641795 -0.012835456 0.00020081217 0.07298291 0.096570395 0.03615928
0.07017665 0.052555483 0.070429 0.06307501 0.022524117 -0.02678417 -0.05701777 -0.100186
0.015305853 0.09427774 -0.0830929 0.051596656 -0.018690607 -0.06480097 0.0036797356 -0.0773351
-0.039504092 -0.054951444 -0.0325885 0.09314122 -0.0074609537 -0.08011305 -0.071960896 0.038978085
0.0027479574 0.03025274 0.10180325 0.062101416 -0.09533812 0.027305419 0.073423915 -0.08636449
-0.06568017 0.010856815 0.049009763 0.07254715 0.000476024 0.009287073 -0.064618304 -0.0005156511
0.09888345 0.019452013 0.06888746 0.028169768 0.040519856 -0.09734098 0.04527726 -0.0068412283
-0.0055784904 -0.06208904 0.054220635 -0.059992407 -0.058200646 0.008234078 -0.00095575885 0.07482141
0.023682209 -0.08249199 0.09315391 -0.03444791 0.042023215 -0.006070173 -0.04251951 -0.085875034
0.09974797 -0.07581833 -0.06821121 -0.08562047 0.084003925 -0.0023273649 0.075435504 0.09140518
0.0924874 -0.021115791 -0.07447872 -0.015519343 -0.05452691 0.07501178 0.020676754 -0.041729026
-0.04050094 0.037423126 -0.014657135 -0.032234326 0.0420466 0.019831287 0.024714764 -0.05228857
00000000: 8257 4d3d 5e15 723d aca1 ac3d aba5 78bd
00000010: 435e 73bd 7716 9ebd 6199 bebc 9ddb 433d
00000020: d1cf 033c 4869 95bd c0bc 7bbd ba16 a73b
00000030: 6ec2 5abd 38ca 963d b6d5 de3c 2277 cf3d
00000040: 15f5 8cbd 8a30 88bd 11e6 95bd 676e b5bd
00000050: 26d8 b03d d231 a83d dbee 47bc c140 263c
00000060: fa80 0bbd 02ed 8bbd 074b 37bd 61a6 83bd
00000070: 9a4f e73a 8345 963d 8965 bdbc d9b7 8f3c
00000080: b9d8 703c 372b aa3d 2041 4f3c eac0 1abd
00000090: e0da 86bd 0c29 8cbc a23c 9abd 89fc b4bd
000000a0: 5e94 2fbd b7fb a03d cfb0 133d b502 6cbb
000000b0: 69d8 523d 403a e5bc 916a cbbd 94ab 4dbc
000000c0: 79e2 4fbd 519c 7c3d 3941 b2bd f3d6 a6bd
000000d0: 4ec4 a63d 1672 27bd 9a43 7bb9 91e6 863d
000000e0: 005a a43d a2ea a7bd 0b37 b63d 73b3 52bc
000000f0: a74d 0fbc daca bf3c 41ba 43bc 9828 c33d
00000100: 7225 63bd 762c 483d 7315 c5bd 28e0 0c3d
00000110: 15d2 fb3c d7ab 273b 3c66 bbbd c1dd 453d
00000120: 35c7 c9bd 86d7 42bc da5d 3e3d 7d15 883c
00000130: 6277 1cbd 49c0 3b3d e2f0 673d 6458 ac3d
00000140: 8a9c e43c fcbf a73d cd79 553c 806e 593d
00000150: 5b7d 893d dd7e ad3d aebb c4bc acc1 e13a
00000160: a64b ad3d 6a29 ca3d 984d ed3b d16f c83d
00000170: 39f5 1e3d 1bec 833d a2da e73c 7f85 133d
00000180: e8a3 a93d 0dea 4abd 3139 fb3c ec13 863d
00000190: a8f5 753d b5c7 6ebd b9a8 84bd 408c 8e3d
000001a0: 795d fc3c e610 bdbd b1f4 b73d f1b4 333d
000001b0: 96d5 b33d 58c4 92bc dfb2 a13d f752 72bb
000001c0: cbcb e43b 6472 87bc db04 2b3c 6765 803d
000001d0: 4b9a b8bd 4bfc 9a3d 6673 a3bd 8928 483d
000001e0: 7033 4e3d fe71 513d f911 17bd 0209 6d3c
000001f0: 1c09 3bbd 7c72 cdbd eb41 6dbd 6edb 21bd
00000200: 1221 36bd 828c 4b3c 788f 92bd 3e13 bfbd
00000210: dadd ad3d 635a 81bd fa55 6c3d 8cf3 b63c
00000220: 5b75 4a3d d3ff 8dbd b26b 663c a880 46bd
00000230: 9f80 c9bb 9aec 0a3c b4ca a8bd a826 28bd
00000240: 7b56 863d 8359 953d b4d0 c53d 2411 823c
00000250: 8250 59bd b8d6 07bd d11b 103c 7e05 473d
00000260: 84ba aabd 22e8 97bd 7caf 5f3d 4304 f63b
00000270: 6377 49bc d43e 5cbd c3b4 c13d 7e9f 8dbd
00000280: 7686 80bd 15bc 983b f30e a1bd ce4b 52bc
00000290: 1b91 5239 1078 953d b3c6 c53d c11b 143d
000002a0: c7b8 8f3d 6b44 573d 143d 903d 792d 813d
000002b0: 7f84 b83c 7a6a dbbc 778b 69bd 512e cdbd
000002c0: 67c5 7a3c b014 c13d 9c2c aabd 0457 533d
000002d0: 0b1d 99bc 5fb6 84bd b827 713b dd61 9ebd
000002e0: 0bcf 21bd c414 61bd 857b 05bd d3c0 be3d
000002f0: 047b f4bb 5012 a4bd 3c60 93bd 7ca7 1f3d
00000300: 1317 343b 98d4 f73c 397e d03d 0e5e 7e3d
00000310: a240 c3bd 9daf df3c 475f 963d dedf b0bd
00000320: 5383 86bd c8e0 313c 76be 483d 9a93 943d
00000330: dc92 f939 cf28 183c 9a56 84bd c22c 07ba
00000340: 6883 ca3d d459 9f3c de14 8d3d 49c4 e63c
00000350: 26f8 253d b55a c7bd a674 393d 622c e0bb
00000360: c5cb b6bb 1451 7ebd 7516 5e3d 99ba 75bd
00000370: cd63 6ebd 3ae8 063c e48b 7aba f83b 993d
00000380: 3101 c23c 8ff1 a8bd 7ac7 be3d 4019 0dbd
00000390: 8920 2c3d 4de8 c6bb f028 2ebd 40df afbd
000003a0: aa48 cc3d a446 9bbd 52b2 8bbd c959 afbd
000003b0: 400a ac3d b486 18bb ee7d 9a3d a432 bb3d
000003c0: 096a bd3d 06fb acbc 4d88 98bd d844 7ebc
000003d0: 9c57 5fbd c79f 993d 4c62 a93c 0eec 2abd
000003e0: 50e4 25bd fe48 193d 7b24 70bc 2408 04bd
000003f0: 0e39 2c3d 3975 a23c 9e76 ca3c 8a2c 56bd

bias f4 [32]
0.014586337 -0.04223876 -0.029498378 -0.05248483 -0.0722095 0.017023226 -0.07040274 -0.051583726
-0.08367404 -0.04455098 0.049307387 -0.039127104 -0.011263136 -0.10038224 -0.0007472938 -0.022994861
-0.08631249 -0.013786324 -0.089410886 -0.016777556 -0.037264157 0.031072145 -0.025227886 0.07278668
-0.08217288 0.048161123 -0.030186066 -0.06885213 -0.06736416 0.052481364 -0.015060839 -0.076165095
00000000: 88fb 6e3c 8d02 2dbd 95a6 f1bc 55fa 56bd
00000010: 93e2 93bd 4b74 8b3c 502f 90bd 7549 53bd
00000020: 4c5d abbd 177b 36bd 8bf6 493d be43 20bd
00000030: 0489 38bc 3495 cdbd 0ae6 43ba b85f bcbc
00000040: 9ac4 b0bd 09e0 61bc 0e1d b7bd 1671 89bc
00000050: 4da2 18bd 038b fe3c b6aa cebc 2f11 953d
00000060: 414a a8bd 9944 453d c548 f7bc 5802 8dbd
00000070: 39f6 89bd b3f6 563d bdc1 76bc 72fc 9bbd

weight f4 [32, 96]
-0.07585987 0.010679374 -0.072628826 -0.041060753 0.09003615 0.028338388 -0.062873065 -0.08301055
0.051220316 -0.100276366 0.08943113 0.02807741 -0.089741126 -0.074936055 0.014010874 0.026857827
0.08380192 -0.09758795 -0.06415358 -0.044867974 0.04054712 -0.07982679 -0.038739096 0.062175862
-0.06830366 -0.016334273 -0.0014511767 0.05458021 0.025210803 -0.0048701665 0.081029564 0.09675099
-0.08957505 0.08347681 -0.050220806 -0.0644862 0.09568552 -0.058617894 0.09990879 0.073339865
-0.07372332 0.025794016 0.0633488 0.078733034 0.010837846 -0.037906658 0.0043760873 0.012728414
0.092967264 -0.042464238 -0.08689905 -0.00572544 0.07390044 -0.06575632 -0.086529605 0.05216397
-0.099258155 0.0140772555 -0.06785962 0.017325837 0.042485077 -0.033240456 -0.07285827 -0.06891004
0.06173843 0.04996831 -0.05363723 -0.061530698 0.008762115 0.04741817 0.07384028 0.019350884
-0.07372284 0.024928315 0.05531921 0.022559717 0.035845004 -0.010484464 0.062129885 -0.05429325
0.032642193 -0.029886521 -0.05405585 -0.04066481 -0.100625314 0.08697178 -0.08740696 -0.09703804
0.017277097 -0.055819467 0.060129393 0.044679157 0.042867724 -0.024504766 0.045295317 0.08352392
-0.051565025 -0.09153404 -0.009901652 0.056062948 0.043285906 0.0842904 -0.01515203 -0.08240317
0.049838442 -0.09886294 0.012081909 -0.062848344 -0.07248941 0.03139246 0.047510177 -0.002981717
-0.052911006 -0.006231443 0.06925056 -0.049188774 -0.032380827 -0.08024081 -0.07405794 0.043603033
-0.04660369 0.04434193 -0.0783568 -0.05486816 -0.09743167 0.047582883 0.09532214 -0.041473657
0.034626942 -0.07722478 0.030000778 0.055611197 0.044996016 0.08804175 -0.057453025 0.07948812
-0.016100245 -0.049234167 0.02372399 -0.10197826 0.022246728 -0.0068194987 -0.032453727 -0.036704097
0.035442077 -0.07179736 -0.08083633 0.041899957 0.03226601 0.04737172 -0.09478565 -0.008352047
0.03254375 -0.036492273 0.01894146 0.07906222 0.06240504 -0.09614465 0.06372123 -0.06829888
-0.08214966 -0.009102613 0.08421146 0.014202354 -0.018442636 0.0162648 -0.014422402 0.057394613
0.00037907934 0.052627496 -0.05558813 0.06372259 0.0048698867 -0.008746224 0.08576534 -0.016671035
0.059829008 -0.0986485 0.089408875 -0.019552328 -0.042530302 0.06206533 0.035042096 0.012985826
-0.0963315 0.046933837 -0.080879636 -0.0038040432 -0.023572369 -0.014178799 0.09720705 0.07833003
0.011771353 -0.00240522 -0.0537245 -0.043136656 -0.09628196 -0.033186313 0.02098759 -0.067001246
0.01324505 0.03957129 0.07459221 0.0682247 0.044381656 0.013043994 -0.03599424 -0.06444152
-0.06849952 0.057380304 -0.07386072 0.029209174 -0.042871386 0.10104164 0.008853256 0.10203653
0.033232972 0.01983731 -0.048432365 -0.06630627 -0.070110045 -0.03177143 0.06415383 0.0897283
0.0033759319 0.034844335 -0.077104814 -0.015946202 0.06447267 -0.009136485 0.052316673 0.0030263204
0.033390786 0.06403735 0.091408655 -0.034975614 -0.0637582 -0.009424241 0.0940643 -0.021451205
0.009068218 0.006665869 0.054569628 -0.0012901375 -0.051108856 0.07359039 -0.040405013 -0.05119636
0.04302746 0.08355743 0.060861222 -0.01570148 -0.04113586 0.061989885 -0.0070911576 -0.067302436
00000000: 6b5c 9bbd 8bf8 2e3c 6cbe 94bd 522f 28bd
00000010: df64 b83d e825 e83c 98c3 80bd 6f01 aabd
00000020: 65cc 513d b25d cdbd ab27 b73d 9902 e63c
00000030: 32ca b7bd 1378 99bd dd8d 653c f204 dc3c
00000040: 57a0 ab3d 31dc c7bd f462 83bd 7bc7 37bd
00000050: bd14 263d 3a7c a3bd e3ac 1ebd 1eac 7e3d
00000060: cae2 8bbd 74cf 85bc 6935 beba 808f 5f3d
00000070: e386 ce3c eb95 9fbb d4f2 a53d 6225 c63d
00000080: 2073 b7bd e4f5 aa3d 55b4 4dbd 5711 84bd
00000090: c5f6 c33d 5119 70bd fb9c cc3d 3633 963d
000000a0: 41fc 96bd f94d d33c 04bd 813d c93e a13d
000000b0: 3991 313c 0344 1bbd 4865 8f3b d68a 503c
000000c0: 9f65 be3d fbee 2dbd 21f8 b1bd 799c bbbb
000000d0: 1d59 973d 40ab 86bd 6f36 b1bd e3a9 553d
000000e0: dc47 cbbd 4aa4 663c fcf9 8abd eaee 8d3c
000000f0: d504 2e3d 2527 08bd b736 95bd b520 8dbd
00000100: 70e1 7c3d 92ab 4c3d b6b2 5bbd 9d07 7cbd
00000110: f98e 0f3c 8e39 423d 9339 973d bf85 9e3c
00000120: 00fc 96bd 7736 cc3c 6596 623d 28cf b83c
00000130: 36d2 123d 07c7 2bbc e87b 7e3d 9962 5ebd
00000140: d2b3 053d 94d4 f4bc ab69 5dbd 2590 26bd
00000150: a514 cebd 431e b23d 6c02 b3bd e1bb c6bd
00000160: b388 8d3c f4a2 64bd 3d4a 763d 7e01 373d
00000170: 1196 2f3d 38be c8bc 9587 393d 970e ab3d
00000180: d935 53bd 3376 bbbd 8a3a 22bc 43a2 653d
00000190: 904c 313d 72a0 ac3d 3840 78bc fec2 a8bd
000001a0: 6523 4c3d a778 cabd 33f3 453c a2b6 80bd
000001b0: 5475 94bd 6195 003d 089a 423d e968 43bb
000001c0: 36b9 58bd 2231 ccbb 3dd3 8d3d 2b7a 49bd
000001d0: c2a1 04bd 4b55 a4bd b0ab 97bd 1899 323d
000001e0: 83e3 3ebd e29f 353d 8879 a0bd 70bd 60bd
000001f0: 418a c7bd 45e6 423d 4138 c33d 48e0 29bd
00000200: fbd4 0d3d 0728 9ebd 31c4 f53c 91c8 633d
00000210: be4d 383d 3c4f b43d dd53 6bbd abca a23d
00000220: a9e4 83bc c4a9 49bd d058 c23c fad9 d0bd
00000230: c53e b63c 1a76 dfbb 33ee 04bd 0957 16bd
00000240: b62b 113d 7f0a 93bd 858d a5bd 4a9f 2b3d
00000250: 5d29 043d d908 423d fb1e c2bd 06d7 08bc
00000260: 984c 053d ec78 15bd 1f2b 9b3c 60eb a13d
00000270: 6d9c 7f3d 7ce7 c4bd 4780 823d 48e0 8bbd
00000280: 153e a8bd 2023 15bc 0f77 ac3d fdb0 683c
00000290: 0315 97bc c23d 853c f04b 6cbc 9d16 6b3d
000002a0: 2bbf c639 ee8f 573d 61b0 63bd fd80 823d
000002b0: 9293 9f3b 534c 0fbc bda5 af3d b291 88bc
000002c0: 430f 753d 3a08 cabd 001c b73d 342c a0bc
000002d0: 4134 2ebd 3738 7e3d 4d88 0f3d 80c2 543c
000002e0: 7349 c5bd b23d 403d 39a4 a5bd 414d 79bb
000002f0: d71a c1bc 324e 68bc 7d14 c73d 7f6b a03d
00000300: a2dc 403c e5a0 1dbb 390e 5cbd 10b0 30bd
00000310: 7a2f c5bd 5fee 07bd 2bee ab3c f337 89bd
00000320: c401 593c 8115 223d cdc3 983d 64b9 8b3d
00000330: 8ac9 353d 7ab6 553c b26e 13bd eaf9 83bd
00000340: 7a49 8cbd 9c07 6b3d 4a44 97bd 1448 ef3c
00000350: e899 2fbd ebee ce3d 3f0d 113c 87f8 d03d
00000360: 4c1f 083d db81 a23c 0461 46bd 95cb 87bd
00000370: db95 8fbd c222 02bd 1563 833d 79c3 b73d
00000380: bd3e 5d3b efb8 0e3d 21e9 9dbd 9ca1 82bc
00000390: 3f0a 843d 32b1 15bc 024a 563d 3b55 463b
000003a0: c7c4 083d 0426 833d 7634 bb3d 9742 0fbd
000003b0: a993 82bd 2268 1abc c9a4 c03d 70ba afbc
000003c0: dd92 143c 5d6d da3b 6784 5f3d d519 a9ba
000003d0: 8557 51bd 8fb6 963d ba7f 25bd 46b3 51bd
000003e0: 903d 303d 2820 ab3d 9e49 793d 64a0 80bc
000003f0: 137e 28bd 1be9 7d3d f15c e8bb dcd5 89bd

bias f4 [32]
0.07709439 -0.024923656 -0.022004962 0.015006625 0.07231176 0.071242645 -0.08067159 0.03395154
0.0030302259 0.09757271 0.04445636 0.033275567 0.059225697 -0.08966005 0.034688175 -0.013554657
-0.007867883 -0.10043152 0.063352145 -0.004651214 0.05363128 0.0011044487 -0.05344542 -0.03387433
0.009113453 0.007920577 0.03387153 0.06621842 -0.011564701 -0.056897696 0.10121172 0.05068831
00000000: aae3 9d3d b22c ccbc c043 b4bc 59de 753c
00000010: 3018 943d aae7 913d 2637 a5bd c510 0b3d
00000020: c196 463b 33d4 c73d df17 363d f64b 083d
00000030: a596 723d b09f b7bd 3015 0e3d 5a14 5ebc
00000040: 4be8 00bc 0aaf cdbd c5be 813d 3669 98bb
00000050: 79ac 5b3d 26c3 903a 96e9 5abd cfbf 0abd
00000060: 9850 153c 4fc5 013c e0bc 0a3d 869d 873d
00000070: df79 3dbc 8f0d 69bd 1748 cf3d 8c9e 4f3d

weight f4 [16, 416]
0.044322338 -0.004179048 -0.007283183 0.042148236 0.012468434 -0.027842574 0.033125725 0.02949445
0.015393329 0.04255725 -0.01934282 -0.020355077 0.043255366 -0.041517988 -0.024817372 0.0280733
-0.047785733 0.012373282 0.03771374 0.03406266 -0.043706566 0.03182089 0.032224603 0.004036472
0.044521227 -0.04443581 -0.044730958 -0.026846347 0.015654337 -0.026783284 0.005735736 0.016047014
0.01372786 0.034561906 -0.018435374 0.029775586 0.012309562 0.020652585 -0.03617708 0.041217104
0.030298745 -0.033120744 -0.020513412 -0.042167846 -0.028514225 0.01474027 -0.00041433194 0.0024003899
-0.042510502 0.032822326 0.005661122 0.017338801 -0.013450276 -0.038831003 -0.03008089 -0.043959655
0.035264406 -0.010921782 -0.015813284 -0.022185333 0.0018796315 -0.034435134 -0.03009414 -0.0027331472
0.0037443882 0.023435827 0.041893553 -0.038519233 -0.03285371 0.018709883 -0.008667574 -0.034200765
0.021853646 0.007042731 -0.01164572 -0.021949476 0.023573488 0.007080891 0.04171439 0.042426843
0.024262166 0.03990868 0.019489674 -0.031937063 0.0023172898 -0.04219812 -0.025943656 0.005377601
0.04329952 -0.036162797 -0.039876174 -0.03441466 -0.045190487 0.028758803 -0.009288546 0.037126627
0.0041217115 0.033354457 0.009646622 -0.043658808 0.040117394 -0.045662697 -0.03478003 -0.04079118
-0.026047096 0.0073004947 0.013003734 0.016514737 -0.020957971 -0.041566364 -0.019009788 -0.021252194
-0.025536565 -0.0044928566 -0.016065845 -0.02692528 -0.043355335 -0.039795637 0.013559625 0.014503471
-0.024049675 0.029868342 -0.031916007 0.039744116 0.010477788 0.0013799667 0.041678976 -0.037597604
0.013480371 -0.043597773 -0.0067061046 0.013934306 -0.0252681 -0.04111956 -0.011029646 0.036670975
-0.0453037 -0.014288233 0.007027079 0.033334993 -0.01665833 0.0064152367 -0.016544493 0.00889256
-0.036010787 -0.0034353782 0.032103345 0.044913564 -0.0030941402 -0.035661608 -0.042628527 -0.037706252
-0.017698431 -0.042283565 0.004550959 -0.024223035 0.015510118 -0.0058007757 -0.0053521763 0.017238108
-0.031265333 -0.04117482 -0.041885097 0.023567777 -0.0024523376 -0.026915403 -0.007925511 0.04702647
-0.032840163 -0.025014415 -0.023772845 -0.034201227 -0.009317793 0.030613853 -0.00511121 0.017225968
-0.0065440247 0.031155102 -0.045089144 -0.018065153 -0.00043599828 -0.003978773 0.035552777 0.024565067
0.0070293876 0.028078647 -0.011452125 0.027277356 -0.014518064 0.0006342686 -0.019804833 -0.028752496
0.020362675 0.01573269 -0.02102857 0.0046588467 -0.0161123 -0.031660162 -0.015308311 -0.008225456
-0.03707019 -0.034921892 0.03528145 0.041173406 -0.0041295085 -0.030403635 0.0195798 -0.043103293
-0.010123744 0.022692135 -0.011023772 -0.041169096 -0.019895134 0.01107053 -0.01985841 0.044137042
-0.02703591 0.010084193 0.04247095 -0.0076026316 -0.02472291 -0.030552542 0.04413434 0.042562235
0.024635145 0.011385326 0.0063726814 0.039153088 -0.010858232 0.047111984 -0.043557584 0.03925808
-0.044011135 -0.0015896985 -0.03175708 0.032034535 0.031956855 -0.0046467893 0.028726138 0.014934606
0.00833788 0.01780933 0.041911375 -0.045704413 0.029615587 0.042749133 -0.0088008335 0.029576935
-0.02638153 0.010827734 0.04053185 0.01621361 -0.004436391 -0.023393651 -0.034873318 -0.012448684
00000000: 578b 353d 65f0 88bb c4a7 eebb a1a3 2c3d
00000010: 6748 4c3c 1c16 e4bc d7ae 073d 589e f13c
00000020: 4d34 7c3c 8350 2e3d d574 9ebc b1bf a6bc
00000030: 8a2c 313d c40e 2abd cd4d cbbc faf9 e53c
00000040: f9ba 43bd 4eb9 4a3c b979 1a3d 4a85 0b3d
00000050: a805 33bd 9f56 023d f2fd 033d 6244 843b
00000060: e45b 363d 5302 36bd cf37 37bd dfec dbbc
00000070: 863d 803c 9e68 dbbc d7f2 bb3b 0775 833c
00000080: d1ea 603c c990 0d3d c805 97bc eeeb f33c
00000090: 0cae 493c 9c2f a93c 6b2e 14bd 44d3 283d
000000a0: 1335 f83c 9ea9 07bd be0b a8bc 31b8 2cbd
000000b0: aa96 e9bc 2c81 713c b13a d9b9 dc4f 1d3b
000000c0: 7e1f 2ebd b470 063d ef80 b93b 1a0a 8e3c
000000d0: 8c5e 5cbc 420d 1fbd 336c f6bc 0a0f 34bd
000000e0: 6971 103d 46f1 32bc dc8a 81bc 04be b5bc
000000f0: f85d f63a db0b 0dbd fc87 f6bc 9a1e 33bb
00000100: 6964 753b 7efc bf3c 9398 2b3d 58c6 1dbd
00000110: 9d91 06bd 7845 993c 7102 0ebc 1a16 0cbd
00000120: 6b06 b33c b6c6 e63b b1cd 3ebc 63cf b3bc
00000130: 301d c13c d206 e83b b5dc 2a3d c5c7 2d3d
00000140: 73c1 c63c 4977 233d cfa8 9f3c 70d0 02bd
00000150: acdd 173b f0d7 2cbd ca87 d4bc 9636 b03b
00000160: d65a 313d 711f 14bd 3355 23bd 63f6 0cbd
00000170: a919 39bd 9597 eb3c fc2e 18bc 1712 183d
00000180: 6c0f 873b af9e 083d de0c 1e3c 94d3 32bd
00000190: 2352 243d cf08 3bbd 8175 0ebd a714 27bd
000001a0: b860 d5bc fd38 ef3b 9d0d 553c ea49 873c
000001b0: 0db0 abbc 7e41 2abd 6aba 9bbc 1519 aebc
000001c0: 0f32 d1bc d038 93bb 859c 83bc 6892 dcbc
000001d0: 5d95 31bd c000 23bd 3029 5e3c f79f 6d3c
000001e0: d303 c5bc 74ae f43c 5cba 02bd baca 223d
000001f0: 07ab 2b3c 00e0 b43a 93b7 2a3d f2ff 19bd
00000200: c6dc 5c3c 9493 32bd e2be dbbb b74c 643c
00000210: 0cff cebc fc6c 28bd b0b5 34bc 4e34 163d
00000220: 5f90 39bd 3119 6abc 6943 e63b 468a 083d
00000230: 0d77 88bc e836 d23b 5188 87bc 1ab2 113c
00000240: 0c80 13bd 1524 61bb cc7e 033d 49f7 373d
00000250: 0fc7 4abb e811 12bd 409b 2ebd df71 1abd
00000260: 4dfc 90bc 8831 2dbd 3620 953b 636f c6bc
00000270: 261e 7e3c 6f14 bebb 4f61 afbb ef36 8d3c
00000280: 1410 00bd eea6 28bd b58f 2bbd 3611 c13c
00000290: 66b7 20bb b17d dcbc 01da 01bc d49e 403d
000002a0: 6883 06bd 08eb ccbc 45bf c2bc 9616 0cbd
000002b0: a8a9 18bc e7c9 fa3c f07b a7bb 791d 8d3c
000002c0: 426f d6bb fc38 ff3c 65af 38bd 5ffd 93bc
000002d0: b396 e4b9 5e60 82bb ca9f 113d ae3c c93c
000002e0: c756 e63b 3105 e63c b2a1 3bbc c374 df3c
000002f0: 2ddd 6dbc 0c45 263a bf3d a2bc 5b8a ebbc
00000300: a0cf a63c d8e1 803c 1c44 acbc 3da9 983b
00000310: f1fd 83bc 16ae 01bd b6cf 7abc 10c4 06bc
00000320: e9d6 17bd 420a 0fbd 4883 103d 72a5 283d
00000330: d450 87bb 0b11 f9bc d165 a03c 148d 30bd
00000340: 0fde 25bc dbe4 b93c 0d9d 34bc eda0 28bd
00000350: 1ffb a2bc 2b61 353c 1bae a2bc 0bc9 343d
00000360: 6a7a ddbc 2c38 253c 05f6 2d3d 7f1f f9bb
00000370: b387 cabc 5349 fabc 36c6 343d bd55 2e3d
00000380: a5cf c93c 8589 3a3c edd1 d03b fd5e 203d
00000390: bae6 31bc 7ff8 403d 7069 32bd 15cd 203d
000003a0: 0545 34bd 6e5d d0ba b613 02bd a536 033d
000003b0: 31e5 023d 1844 98bb 1453 eb3c 47b0 743c
000003c0: 9a9b 083c dfe4 913c 43ab 2b3d 8d34 3bbd
000003d0: 639c f23c b719 2f3d 5f31 10bc 544b f23c
000003e0: 141e d8bc cf66 313c ba04 263d 68d2 843c
000003f0: 255f 91bb 0ba4 bfbc 53d7 0ebd 91f5 4bbc

bias f4 [16]
-0.0053075575 0.03197894 0.010374032 0.005025357 -0.01600735 -0.01953528 0.014771018 -0.03740528
0.018807221 -0.02610453 -0.029850462 0.046619993 0.04099042 0.0024775576 -0.048952498 0.043670077
00000000: 05eb adbb 59fc 023d d8f7 293c c0ab a43b
00000010: d921 83bc 7408 a0bc 2402 723c 4736 19bd
00000020: 9a11 9a3c 2bd9 d5bc f588 f4bc 9bf4 3e3d
00000030: 92e5 273d 855e 223b 6a82 48bd 65df 323d

weight f4 [16, 416]
0.034911174 0.045730192 0.03147096 0.011356763 0.027904008 0.024509374 -0.019912632 0.039814536
0.04315429 0.030918082 0.037311394 -0.035080407 0.042355813 -0.013916024 0.016505491 -0.016772652
-0.036211718 -0.019863572 -0.01001252 0.009354749 -0.027834017 0.02620761 0.015367582 0.044767242
0.010994028 0.009569618 -0.0130790835 -0.028151426 0.00170128 -0.044877145 -0.0054211905 -0.026338968
-0.026172329 -0.012464576 -0.0046363506 -0.014816729 0.043917097 -0.039213795 0.04329906 -0.015534175
0.015530826 -0.022740588 0.021248186 -0.034471586 -0.0302802 0.012433903 0.04001657 0.035560217
-0.036287494 -0.046099592 0.00258565 -0.03492338 0.04765944 0.03655593 -0.016541278 -0.008981704
-0.04658084 0.03257008 -0.040622726 -0.024066338 -0.005035644 -0.03506373 -0.018722836 -0.025852986
-0.04328965 0.0043960097 0.0086659845 0.02867637 0.008228489 -0.032359354 0.03947066 0.043211736
-0.03251289 -0.018475095 -0.040398516 0.015109129 0.031862605 -0.02285156 0.02828198 0.0017864434
0.046010688 0.042440325 -0.0062046046 0.04426668 0.046477254 0.018992832 -0.0031145208 0.032925203
-0.045056064 -0.0414282 0.029036164 0.018432891 0.03761357 0.029653601 0.014975449 -0.04407677
0.02126237 0.020594401 0.034333922 -0.04470513 -0.008135588 0.032742452 0.0149129685 -0.030064812
-0.018842407 0.0058813975 -0.020053953 -0.0367784 -0.037533343 0.0015010635 0.037351098 -0.029748816
-0.047933396 -0.019236393 0.04251869 0.041411 -0.041972 0.017439095 0.038399685 0.03433374
0.0023871926 0.034962866 -0.034010276 0.03495457 -0.02233768 0.041594673 0.0166961 -0.007523541
-0.018986134 -0.0051256465 -0.028562766 0.016914895 0.03418006 0.04835418 -0.0466966 -0.041570257
0.02341858 0.0014247957 0.0024619466 0.0022972072 -0.0028563829 0.017967569 -0.009756012 0.022338074
0.027009983 -0.024163565 0.0029921967 0.020147877 0.037746213 -0.025642255 -0.014657175 -0.006686724
0.0022603504 -0.018176114 -0.0003699647 -0.022996971 0.04188741 -0.0224837 -0.02819463 -0.0006924703
-0.043797657 0.029065926 -0.021291535 0.016655723 -0.005479293 -0.004060944 -0.015938032 -0.0050044684
-0.037986506 0.038890123 -0.013655016 -0.041308723 0.035568003 -0.025243465 0.0033334345 -0.004827414
0.03430883 -0.009125268 -0.027797073 0.04840304 0.012254616 0.029024627 0.022735374 -0.028772995
0.047738742 0.04801323 -0.008699509 -0.017404256 -0.03250726 -0.041174266 0.004355301 -0.027662896
0.0031212363 0.034857 -0.012679662 -0.047110416 -0.042919308 -0.034016307 0.0005240431 -0.007955968
0.04811336 -0.0053631878 0.042628027 0.042333946 0.04193932 -0.043732002 -0.018703748 0.010541694
0.015089567 -0.009184773 0.044186886 0.0005346396 -0.039525673 -0.020622123 0.0377287 -0.030930134
0.015749687 0.04067091 0.011857626 0.0012697997 0.042905666 0.013896789 -0.03568329 0.04757335
0.03596393 0.015680905 -0.001419138 -0.026717747 0.021571105 -0.033404067 0.008165057 0.036944333
0.028203841 0.03288374 -0.010015062 -0.031768337 -0.0038377342 -0.024517521 -0.021986531 -0.005297563
0.03476818 -0.019859767 -0.033841994 0.034283306 -0.010505784 -0.0041828007 -0.008726378 -0.030125836
-0.0260472 -0.012293127 0.0010335913 -0.02091153 0.04336144 0.042015836 -0.031803172 -0.025617579
00000000: 05ff 0e3d 954f 3b3d b1e7 003d b711 3a3c
00000010: f296 e43c e2c7 c83c d11f a3bc 9114 233d
00000020: 8ec2 303d eb47 fd3c d5d3 183d 79b0 0fbd
00000030: 4a7d 2d3d 0900 64bc 8636 873c cd66 89bc
00000040: bd52 14bd eeb8 a2bc 8d0b 24bc a944 193c
00000050: 2a04 e4bc 57b1 d63c 50c8 7b3c db5d 373d
00000060: 4c20 343c e3c9 1c3c a749 56bc d29d e6bc
00000070: 7cfd de3a 19d1 37bd 3ea4 b1bb d2c4 d7bc
00000080: 5a67 d6bc 3938 4cbc 87ec 97bb dec1 72bc
00000090: 6ae2 333d a59e 20bd 5b5a 313d 0d83 7ebc
000000a0: 0175 7e3c 784a babc ad10 ae3c 1432 0dbd
000000b0: 2f0e f8bc 92b7 4b3c 6ae8 233d 97a7 113d
000000c0: 32a2 14bd edd2 3cbd 0274 293b d10b 0fbd
000000d0: 8c36 433d acbb 153d 9381 87bc ff27 13bc
000000e0: 8dcb 3ebd 3468 053d 0464 26bd c526 c5bc
000000f0: 0b02 a5bb fc9e 0fbd a260 99bc a4c9 d3bc
00000100: 7d50 31bd 670c 903b c6fb 0d3c b5ea ea3c
00000110: c9d0 063c 3e8b 04bd fdab 213d cafe 303d
00000120: 3c2c 05bd 1559 97bc ea78 25bd 488c 773c
00000130: 5d82 023d 3233 bbbc 9caf e73c 1827 ea3a
00000140: b475 3c3d e8d5 2d3d ff4f cbbb fa50 353d
00000150: ef5e 3e3d db96 9b3c fd1c 4cbb 94dc 063d
00000160: b58c 38bd 9eb0 29bd 40dd ed3c 9300 973c
00000170: b010 1a3d 1cec f23c 965b 753c d889 34bd
00000180: 6c2e ae3c 97b5 a83c baa1 0c3d ba1c 37bd
00000190: 214b 05bc f31c 063d 8655 743c 7b4a f6bc
000001a0: 645b 9abc bdb8 c03b 3048 a4bc f3a4 16bd
000001b0: 90bc 19bd 55bf c43a 77fd 183d cab3 f3bc
000001c0: cf55 44bd a495 9dbc 1428 2e3d 959e 293d
000001d0: d5ea 2bbd 6fdc 8e3c fd48 1d3d 89a1 0c3d
000001e0: 7272 1c3b 3935 0f3d 5c4e 0bbd 862c 0f3d
000001f0: 83fd b6bc 2d5f 2a3d 42c6 883c 0988 f6bb
00000200: cf88 9bbc 0af5 a7bb 76fc e9bc 1b91 8a3c
00000210: 6400 0c3d 080f 463d ef44 3fbd 9345 2abd
00000220: 52d8 bf3c 36c0 ba3a 9c58 213b be8c 163b
00000230: 2732 3bbb b930 933c aed7 1fbc 56fe b63c
00000240: 0a44 dd3c abf2 c5bc bb18 443b 290d a53c
00000250: c69b 1a3d b50f d2bc a624 70bc 4e1c dbbb
00000260: 6322 143b 13e6 94bc d2f7 c1b9 2564 bcbc
00000270: 2292 2b3d bd2f b8bc 6df8 e6bc e586 35ba
00000280: 2c65 33bd aa1b ee3c 966b aebc 9571 883c
00000290: a48b b3bb ab11 85bb 7a90 82bc 86fc a3bb
000002a0: bd97 1bbd 404b 1f3d 4ab9 5fbc 5633 29bd
000002b0: c1af 113d 62cb cebc c075 5a3b 492f 9ebb
000002c0: 6a87 0c3d 2682 15bc b0b6 e3bc 4442 463d
000002d0: 96c7 483c 0ec5 ed3c 893f ba3c 58b5 ebbc
000002e0: b389 433d 85a9 443d 6388 0ebc 5f93 8ebc
000002f0: 5526 05bd 59a6 28bd eab6 8e3b 4c9d e2bc
00000300: a88d 4c3b 37c6 0e3d 5bbe 4fbc daf6 40bd
00000310: 28cc 2fbd af54 0bbd f05f 093a c059 02bc
00000320: 8412 453d aebd afbb ba9a 2e3d 5c66 2d3d
00000330: 90c8 2b3d 5420 33bd 9a38 99bc 12b7 2c3c
00000340: 3b3a 773c bb7b 16bc 4ffd 343d 0e27 0c3a
00000350: ace5 21bd baef a8bc 6989 1a3d 3161 fdbc
00000360: 7d05 813c 8a96 263d 7d46 423c 686f a63a
00000370: dabd 2f3d 5caf 633c a428 12bd 46dc 423d
00000380: ea4e 133d 3e75 803c 5f02 baba 2ddf dabc
00000390: e3b5 b03c b4d2 08bd bbc6 053c f152 173d
000003a0: be0b e73c 1ab1 063d 3716 24bc 841f 02bd
000003b0: 7f82 7bbb f8d8 c8bc 191d b4bc 2e97 adbb
000003c0: 1469 0e3d f3b0 a2bc e79d 0abd a76c 0c3d
000003d0: 7420 2cbc e00f 89bb 15f9 0ebc 75ca f6bc
000003e0: f060 d5bc 1d69 49bc 9279 873a a84e abbc
000003f0: c49b 313d cc18 2c3d 0b44 02bd f5db d1bc

bias f4 [16]
0.027272498 0.022311533 0.00486039 0.034155015 0.02235573 0.015368489 0.009121819 -0.03347408
-0.023732768 0.015600115 0.034921445 0.04566457 -0.01303066 0.0394079 0.04196978 -0.04456564
00000000: 936a df3c adc6 b63c e843 9f3b 21e6 0b3d
00000010: 5d23 b73c 1dcc 7b3c af73 153c 1e1c 09bd
00000020: 396b c2bc a097 7f3c ca09 0f3d c60a 3b3d
00000030: 8d7e 55bc 2e6a 213d 81e8 2b3d 768a 36bd

weight f4 [32, 32]
-0.06499402 0.048163775 -0.0102549605 -0.00028946454 0.026858732 0.12077847 -0.12355279 0.031918526
0.16411363 0.010056596 -0.16292174 0.098438896 -0.028982216 0.088127434 -0.1735645 -0.10427471
0.000315996 0.16066553 0.010297465 -0.11315556 0.023675002 0.07562451 0.10413159 0.049130622
0.072509035 0.13964936 0.075612456 0.11601299 -0.0070502195 -0.0987656 -0.16373254 0.06802731
-0.08395884 0.0062582167 0.019568296 -0.12158577 0.03693446 0.052825764 0.103672944 -0.08159872
0.008698773 -0.06676345 -0.092587076 0.15777224 0.14312315 0.014592482 -0.14729129 -0.044481363
0.006806421 0.014395656 0.07587998 0.04005177 -0.044496387 -0.09066588 -0.042007532 0.051760584
0.078973375 0.1762718 0.01755507 -0.11561315 0.114966825 -0.14261629 0.0582944 0.09756399
0.05207064 -0.15793078 -0.15914327 0.11982275 -0.13087472 -0.110256135 -0.14061002 0.09192602
0.033251587 -0.117782824 0.03604468 -0.060027204 0.0663823 0.08852922 -0.053595744 0.07020904
-0.003492899 0.15185918 -0.17487136 -0.17198174 0.08754874 -0.17364416 -0.16556966 -0.14086406
-0.103304856 0.100525334 -0.01810167 0.029422335 -0.14461468 0.08573752 -0.15680176 0.044063054
0.05086214 0.03548021 -0.063555405 -0.17196663 0.010685954 -0.15927684 -0.14087382 -0.1588137
0.10035428 0.068284616 0.03593434 0.05185409 -0.08720324 0.0915407 0.080263026 0.049401794
0.120088026 0.118673705 -0.080143414 0.17331637 0.07572716 0.032379568 -0.07519004 0.020645676
0.0749384 -0.098640166 0.088554025 -0.024306677 -0.0057642767 -0.09108479 0.1547185 -0.16531026
-0.016919727 0.027043778 0.13775297 -0.07992669 0.08013266 -0.09050264 -0.1189811 0.029726446
0.053076345 0.036323756 -0.16885492 -0.17320277 0.016471874 -0.021397196 0.112784356 -0.15457405
0.14617634 0.07765359 -0.11972691 0.16223776 -0.11952446 0.101016894 0.09442137 -0.14020768
-0.10993324 -0.027526043 0.048803184 -0.12074764 0.15474272 -0.08424691 0.12530698 -0.16104856
0.034172073 -0.07481858 -0.07051979 -0.10365516 -0.0535772 0.04202081 -0.053604256 -0.12725799
-0.12003186 0.14889957 0.0060503487 -0.15770155 0.016137458 0.09204273 -0.048188977 -0.13570373
-0.026245158 -0.053716138 0.07796657 0.0992769 0.14114036 0.011864675 -0.13380407 0.042207245
-0.035434056 -0.14731394 0.0047616456 -0.13649237 0.08944122 -0.11870676 -0.1739074 0.17187054
0.10464546 0.15367998 0.17306195 -0.14107671 -0.0013312503 0.01673881 0.06525748 0.15700048
-0.08021203 -0.08425907 0.013208085 -0.15307052 0.036234573 0.06561959 -0.076199286 -0.118569806
0.026696341 0.08300683 0.13025622 -0.16374335 0.16625844 0.047157876 -0.09333645 0.16246946
0.02337363 -8.050048e-06 0.0013658318 -0.002315274 0.047255784 -0.0039729513 -0.0283717 0.08129202
0.072434016 -0.064955376 0.005741602 0.027531037 -0.17468387 0.11706194 -0.055345472 0.0026311013
0.1313479 0.007572103 -0.016863797 0.17364994 -0.14394219 -0.08350096 -0.038876947 0.0085913185
0.040773682 -0.053768884 -0.14353575 -0.13368493 0.0137417475 0.14002982 0.13969558 -0.014152152
-0.0014171667 -0.02746004 -0.063054174 0.05630962 0.063771844 0.11113264 -0.05692014 0.010224804
00000000: 961b 85bd 6147 453d 6c04 28bc 46c3 97b9
00000010: d806 dc3c b45a f73d 3f09 fdbd 00bd 023d
00000020: 670d 283e 6cc4 243c f5d4 26be 559a c93d
00000030: 1d6c edbc 287c b43d e4ba 31be fb8d d5bd
00000040: 44ac a539 8185 243e b3b6 283c 1abe e7bd
00000050: 14f2 c13c 06e1 9a3d f142 d53d 313d 493d
00000060: 9e7f 943d 3e00 0f3e b4da 9a3d 3898 ed3d
00000070: 8705 e7bb 9e45 cabd 81a9 27be e751 8b3d
00000080: 9df2 abbd ba11 cd3b b14d a03c f601 f9bd
00000090: 9748 173d d45f 583d 7b52 d43d 3b1d a7bd
000000a0: 4c85 0e3c 47bb 88bd 4b9e bdbd 0c8f 213e
000000b0: e08e 123e 4e15 6f3c 87d3 16be 1732 36bd
000000c0: 6608 df3b c2db 6b3c f766 9b3d 530d 243d
000000d0: d841 36bd 08af b9bd 1710 2cbd e802 543d
000000e0: cbbc a13d 9880 343e a6cf 8f3c 96c6 ecbd
000000f0: ba73 eb3d 010a 12be 1cc6 6e3d a1cf c73d
00000100: 0648 553d 9bb8 21be 74f6 22be a165 f53d
00000110: 0604 06be f8cd e1bd 13fc 0fbe b643 bc3d
00000120: d132 083d 1f38 f1bd 96a3 133d 16df 75bd
00000130: 71f3 873d cf4e b53d 3687 5bbd c2c9 8f3d
00000140: 1fe9 64bb f980 1b3e 7a11 33be fb1b 30be
00000150: c14c b33d c6cf 31be 188b 29be ab3e 10be
00000160: 7f91 d3bd 3ae0 cd3d f449 94bc 1c07 f13c
00000170: df15 14be 2797 af3d a490 20be 767b 343d
00000180: d254 503d b253 113d 5629 82bd 0518 30be
00000190: 2414 2f3c 7819 23be 3a41 10be 0fa0 22be
000001a0: 8b86 cd3d ced8 8b3d e32f 133d f464 543d
000001b0: 9d97 b2bd b179 bb3d f160 a43d 8959 4a3d
000001c0: b6f0 f53d 330b f33d 3b22 a4bd d979 313e
000001d0: d716 9b3d 70a0 043d 3cfd 99bd 1f21 a93c
000001e0: 4e79 993d db03 cabd d05b b53d cc1e c7bc
000001f0: 42e2 bcbb aa8a babd 876e 1e3e 1847 29be
00000200: 3d9b 8abc ea8a dd3c 1d0f 0d3e 9bb0 a3bd
00000210: 981c a43d 7359 b9bd 5dac f3bd e084 f33c
00000220: 9566 593d 38c8 143d 4ee8 2cbe 115c 31be
00000230: 06f0 863c 2c49 afbc 7cfb e63d a948 1ebe
00000240: 40af 153e d808 9f3d 6233 f5bd a821 263e
00000250: 3dc9 f4bd f2e1 ce3d fe5f c13d 9a92 0fbe
00000260: ae24 e1bd 4c7e e1bc d9e5 473d 8a4a f7bd
00000270: e074 1e3e a589 acbd 7950 003e eae9 24be
00000280: 04f8 0b3d 7c3a 99bd ae6c 90bd 2849 d4bd
00000290: c473 5bbd 031e 2c3d 2390 5bbd eb4f 02be
000002a0: 44d3 f5bd 2179 183e 0142 c63b 847c 21be
000002b0: b432 843c e680 bc3d ce61 45bd ebf5 0abe
000002c0: 1600 d7bc 7405 5cbd f0ac 9f3d b051 cb3d
000002d0: 1987 103e 0e64 423c ef03 09be 81e1 2c3d
000002e0: 4d23 11bd 77d9 16be 9407 9c3b a8c4 0bbe
000002f0: f52c b73d 881c f3bd c814 32be d5fe 2f3e
00000300: 5c50 d63d 495e 1d3e 2737 313e 6a76 10be
00000310: 597d aeba d41f 893c b7a5 853d bcc4 203e
00000320: 3446 a4bd 0590 acbd b966 583c 85be 1cbe
00000330: b46a 143d 9063 863d 5f0e 9cbd bad4 f2bd
00000340: 49b2 da3c 7cff a93d e361 053e 56ac 27be
00000350: a73f 2a3e 9e28 413d 2e27 bfbd 655e 263e
00000360: 0e7a bf3c b10e 07b7 b605 b33a dabb 17bb
00000370: 488f 413d 882f 82bb c46b e8bc 6e7c a63d
00000380: 4958 943d 5307 85bd 0c24 bc3b c588 e13c
00000390: 54e0 32be 2cbe ef3d efb1 62bd 8e6e 2c3b
000003a0: 1080 063e 671f f83b f225 8abc 4ad1 313e
000003b0: 9565 13be 8d02 abbd 6f3d 1fbd 9ac2 0c3c
000003c0: 4e02 273d c33c 5cbd 09fb 12be b4e4 08be
000003d0: 1125 613c fa63 0f3e 5c0c 0f3e 6ede 67bc
000003e0: 39c0 b9ba e1f3 e0bc 8c22 81bd eba4 663d
000003f0: d09a 823d 8299 e33d 1825 69bd f085 273c

bias f4 [32]
0.09929698 -0.023404714 -0.15753794 -0.06628578 -0.13936459 -0.07205273 0.14265332 0.073178686
0.029399175 -0.14867541 -0.1497693 -0.12154715 0.007488652 0.04109522 0.12748125 0.048312828
0.15406327 -0.0016467827 -0.06250281 0.14032711 -0.04579236 0.12882082 0.13929717 -0.15707639
-0.06211381 -0.044062253 0.056670945 0.035353556 -0.032597657 0.09899192 -0.07417799 -0.11256747
00000000: 375c cb3d 3ebb bfbc a051 21be d7c0 87bd
00000010: 97b5 0ebe 6290 93bd b613 123e b5de 953d
00000020: 8ad6 f03c 5e3e 18be 205d 19be b6ed f8bd
00000030: 5e63 f53b 7653 283d 728a 023e ace3 453d
00000040: c3c2 1d3e dcd8 d7ba 7901 80bd e9b1 0f3e
00000050: c590 3bbd 9be9 033e eba3 0e3e a2d8 20be
00000060: 0d6b 7ebd 9f7a 34bd cb1f 683d e4ce 103d
00000070: 1f85 05bd 47bc ca3d a1ea 97bd c689 e6bd

weight f4 [32]
1.0 1.0 1.0 1.0 1.0 1.0 1.0 1.0
1.0 1.0 1.0 1.0 1.0 1.0 1.0 1.0
1.0 1.0 1.0 1.0 1.0 1.0 1.0 1.0
1.0 1.0 1.0 1.0 1.0 1.0 1.0 1.0
00000000: 0000 803f 0000 803f 0000 803f 0000 803f
00000010: 0000 803f 0000 803f 0000 803f 0000 803f
00000020: 0000 803f 0000 803f 0000 803f 0000 803f
00000030: 0000 803f 0000 803f 0000 803f 0000 803f
00000040: 0000 803f 0000 803f 0000 803f 0000 803f
00000050: 0000 803f 0000 803f 0000 803f 0000 803f
00000060: 0000 803f 0000 803f 0000 803f 0000 803f
00000070: 0000 803f 0000 803f 0000 803f 0000 803f

bias f4 [32]
0.0 0.0 0.0 0.0 0.0 0.0 0.0 0.0
0.0 0.0 0.0 0.0 0.0 0.0 0.0 0.0
0.0 0.0 0.0 0.0 0.0 0.0 0.0 0.0
0.0 0.0 0.0 0.0 0.0 0.0 0.0 0.0
00000000: 0000 0000 0000 0000 0000 0000 0000 0000
00000010: 0000 0000 0000 0000 0000 0000 0000 0000
00000020: 0000 0000 0000 0000 0000 0000 0000 0000
00000030: 0000 0000 0000 0000 0000 0000 0000 0000
00000040: 0000 0000 0000 0000 0000 0000 0000 0000
00000050: 0000 0000 0000 0000 0000 0000 0000 0000
00000060: 0000 0000 0000 0000 0000 0000 0000 0000
00000070: 0000 0000 0000 0000 0000 0000 0000 0000

weight f4 [32, 3]
-0.061424844 0.008533744 0.38865513 0.4709553 0.27813038 -0.36531454 0.15672877 0.040190797
-0.0037873993 0.5261375 0.4016046 -0.28534397 -0.054474086 -0.30610004 0.11932293 -0.5587375
0.5622243 -0.39098158 -0.3844695 -0.3709144 0.1970204 0.44860497 0.12477729 -0.3794023
0.28076094 0.011233838 0.36573425 0.4334628 0.5152942 0.30385432 0.22076975 -0.47396758
0.5238543 0.4209785 0.3430115 -0.34402317 -0.018959433 0.38455477 0.44730362 0.4301269
0.024565203 0.50637406 0.14587066 -0.03152718 -0.51893336 0.5024538 -0.5649502 0.4123272
0.18728551 -0.43800372 0.013451947 -0.18240854 -0.45336056 -0.145172 0.081065096 -0.022304421
0.30765605 0.34830493 0.31757635 -0.13535611 -0.24460147 0.29228723 -0.33173972 0.03517321
-0.43432286 -0.22372842 -0.42620158 -0.13701433 -0.43801782 -0.47150666 -0.5303076 -0.50104797
-0.57408345 -0.26520866 -0.27998 -0.49822143 -0.50085443 -0.2039746 0.46365932 0.22333872
0.26997137 0.055818524 0.41846648 0.06350936 0.16241686 -0.24388218 0.4265334 0.16636902
-0.075455405 -0.57575357 -0.5009002 0.17269443 -0.30872428 0.077531874 0.11987278 0.1898209
00000000: 9e98 7bbd 1ed1 0b3c cefd c63e 0e21 f13e
00000010: 1b67 8e3e 820a bbbe 827d 203e 1b9f 243d
00000020: 0436 78bb f2b0 063f 1e9f cd3e 9b18 92be
00000030: 3820 5fbd 25b9 9cbe 955f f43d 6c09 0fbf
00000040: efed 0f3f bd2e c8be 30d9 c4be 7ee8 bdbe
00000050: b7bf 493e 8daf e53e 3c8b ff3d 0541 c2be
00000060: e6bf 8f3e 220e 383c 8541 bb3e d6ee dd3e
00000070: 52ea 033f cb92 9b3e 7711 623e e1ab f2be
00000080: 511b 063f 7e8a d73e 349f af3e ce23 b0be
00000090: d050 9bbc 5de4 c43e fb04 e53e 9839 dc3e
000000a0: f73c c93c bba1 013f 1e5f 153e a522 01bd
000000b0: d1d8 04bf d0a0 003f 94a0 10bf 8d1c d33e
000000c0: c6c7 3f3e 0642 e0be 8e65 5c3c 4ec9 3abe
000000d0: e01e e8be f8a7 14be 7505 a63d c3b7 b6bc
000000e0: 1885 9d3e 0655 b23e 5e99 a23e cb9a 0abe
000000f0: cf78 7abe aca6 953e cad9 a9be c911 103d
00000100: 915f debe 1019 65be 1837 dabe 7c4d 0cbe
00000110: df43 e0be 5269 f1be 3dc2 07bf ae44 00bf
00000120: 22f7 12bf 6ec9 87be 8a59 8fbe e116 ffbe
00000130: ff37 00bf b8de 50be c164 ed3e e8b2 643e
00000140: b039 8a3e f7a1 643d 3d41 d63e 3211 823d
00000150: 9b50 263e 40bc 79be 9662 da3e a45c 2a3e
00000160: 5d88 9abd 9664 13bf ff3a 00bf cfd6 303e
00000170: 1c11 9ebe 08c9 9e3d dc7f f53d 6960 423e

bias f4 [32]
0.01251592 -0.056306843 0.25902903 -0.55804485 0.12380265 -0.41890636 -0.3886303 0.31714287
-0.56754595 -0.40755132 0.13318363 0.18070538 -0.39559054 -0.087618254 -0.39979213 0.29705498
-0.23156853 0.45555538 0.5223638 0.29688814 0.24999285 -0.18132894 -0.154834 0.12322217
-0.13705479 -0.5313805 -0.33933237 0.5075017 -0.41652018 -0.40338495 -0.0011617747 -0.5259601
00000000: 930f 4d3c 01a2 66bd 749f 843e 07dc 0ebf
00000010: 3e8c fd3d e57a d6be 8dfa c6be 8d60 a23e
00000020: b14a 11bf 91aa d0be 4a61 083e d50a 393e
00000030: d88a cabe 3371 b3bd 8eb1 ccbe 9717 983e
00000040: 4d20 6dbe 8e3e e93e a2b9 053f b901 983e
00000050: 20fe 7f3e 4bae 39be ce8c 1ebe e85b fc3d
00000060: 1758 0cbe 8d08 08bf f9bc adbe a2eb 013f
00000070: 2242 d5be 7988 cebe b146 98ba 52a5 06bf
